arm_pose_model.pth (torch, 68917 bytes, 10 tensors)

lstm.weight_ih_l0 f4 [128, 25]
0.32422516 -0.3607452 0.082025185 -0.22851604 0.30055618 -0.14270432 0.024738869 -0.09575956
0.019683981 -0.19333495 -0.24187198 0.02937864 0.5626465 -0.19531596 -0.2755752 -0.06615472
0.24356034 -0.05627415 -0.031509873 -0.021285212 -0.1864426 -0.06339202 -0.35905126 -0.12009707
-0.041863523 -0.2289136 -0.09481178 -0.7906593 -0.08728241 -0.23912041 -0.21088582 0.36440936
-0.13534607 -0.39883247 0.20058417 0.07687043 -0.10665766 0.24053672 0.06351634 -0.5378753
-0.27738428 0.19830194 -0.0019567513 -0.22383901 -0.4268423 0.13141063 0.14176306 0.32819593
0.17764607 -0.17242151 -0.45617637 -0.09222584 -0.49262646 0.11246277 0.05513488 0.12837322
-0.1759624 -0.014648099 -0.12675124 -0.33241254 -0.05628918 0.12310776 -0.09894121 0.11221241
-0.3717237 -0.18966429 -0.42042977 0.054543283 -0.26683223 -0.17157015 0.0035167693 -0.24549279
0.10888884 -0.27662823 -0.046971623 0.18038891 -0.09388366 0.54868764 0.3261826 -0.03656243
-0.037211042 -0.5877112 0.10710594 -0.21238469 -0.19053917 -0.017848693 -0.025298959 -0.088609174
0.29353595 -0.37410417 -0.032851245 -0.20652929 0.034427352 0.23928367 -0.17198385 -0.19470501
0.17301887 0.1782991 -0.0425821 -0.26099268 -0.2588225 0.10276989 -0.016497863 0.03675334
-0.050088737 -0.26793435 -0.5965336 -0.32136688 -0.06500538 0.13984147 0.024868388 0.13856286
-0.43014225 0.068034135 0.4752334 0.25278452 0.110082425 -0.006464678 0.11673713 0.54456055
0.12564288 0.02468885 -0.27653098 0.15096152 0.22237618 -0.1209351 0.20925888 0.03945897
-0.20995235 -0.13275127 -0.18710747 -0.63383365 0.28691164 -0.112808354 0.221602 0.45512354
-0.27089638 0.18424287 0.11266598 -0.27630645 -0.095567845 0.5093346 -0.08302397 -0.18499853
0.23007096 -0.06996775 0.06679286 -0.05059187 0.115074426 -0.18122494 0.17911546 0.5494139
0.013724854 0.14333804 0.14067641 -0.1857559 0.2906713 -0.09589902 0.21746254 0.077411324
-0.064391054 -0.08402954 0.26491418 0.21421576 -0.58554333 0.10046576 0.18985164 0.06987925
0.25151938 -0.4740102 -0.4527716 -0.04974643 0.25524136 -0.06679063 -0.32452512 -0.26078963
-0.109063074 0.16912116 0.07500119 0.15926267 0.28416535 -0.06013536 -0.48648608 0.07162489
-0.02107366 -0.26233822 0.16194871 0.028313294 0.27403963 -0.095019534 0.10267067 -0.008578782
-0.04710152 0.2321598 -0.19390169 0.0026938203 0.34330386 -0.22966968 -0.23478435 0.36754802
-0.32886323 0.12617663 -0.5649557 -0.1318031 0.09789584 -0.11923072 -0.20256764 0.08779504
-0.16774642 0.038124036 0.19390209 -0.035719458 0.25559354 0.18949397 0.29944158 0.52290565
0.19859512 0.30356517 -0.002949493 0.31243885 -0.13618383 0.11062168 -0.20986891 -0.044569176
0.14451128 -0.34530362 -0.18635832 0.43065178 -0.064857274 -0.03561465 -0.24969119 -0.04050193
-0.20607442 0.1037297 0.3899169 0.28922877 -0.23217747 -0.22570774 -0.032634273 0.2831763
-0.22280757 -0.07506992 -0.053069524 -0.23109874 -0.48001885 0.15064451 -0.15358207 0.2996401
-0.2666772 -0.03208055 -0.04271589 0.05425494 0.33689874 -0.0010610437 0.33496958 0.22683007
00000000: d700 a63e 98b3 b8be d2fc a73d 1c00 6abe
00000010: 80e2 993e 1521 12be 2ba9 ca3c 971d c4bd
00000020: 4d40 a13c 99f9 45be 4aad 77be 79ab f03c
00000030: 9a09 103f e800 48be 3118 8dbe 207c 87bd
00000040: e267 793e b97f 66bd 7f10 01bd 535e aebc
00000050: cfea 3ebe add3 81bd 91d5 b7be 74f5 f5bd
00000060: 1679 2bbd 5468 6abe ae2c c2bd a668 4abf
00000070: 1fc1 b2bd fbdb 74be 74f2 57be dd93 ba3e
00000080: 2998 0abe c533 ccbe f065 4d3e 3e6e 9d3d
00000090: 556f dabd 424f 763e db14 823d 32b2 09bf
000000a0: 5005 8ebe aa0f 4b3e d73c 00bb 0e36 65be
000000b0: 138b dabe 8290 063e 562a 113e 4c09 a83e
000000c0: dae8 353e 448f 30be f38f e9be e7e0 bcbd
000000d0: 8939 fcbe e152 e63d 1dd5 613d 4574 033e
000000e0: 7d2f 34be 95fe 6fbc 14cb 01be fa31 aabe
000000f0: 7c8f 66bd ec1f fc3d b0a1 cabd 9fcf e53d
00000100: 9252 bebe 5b37 42be 9242 d7be c768 5f3d
00000110: 3c9e 88be 16b0 2fbe 9979 663b 7662 7bbe
00000120: 1d01 df3d 37a2 8dbe 5165 40bd dfb7 383e
00000130: 1446 c0bd cb76 0c3f 6801 a73e 7dc2 15bd
00000140: 9b6a 18bd 3e74 16bf 5c5a db3d 5f7b 59be
00000150: b31c 43be 6c37 92bc c33f cfbc ba78 b5bd
00000160: 584a 963e 958a bfbe 078f 06bd 6a7c 53be
00000170: b203 0d3d c706 753e 891c 30be c060 47be
00000180: dc2b 313e 0a94 363e 916a 2ebd d5a0 85be
00000190: 6284 84be 0579 d23d 8726 87bc ac8a 163d
000001a0: d929 4dbd b12e 89be 6db6 18bf 338a a4be
000001b0: 8a21 85bd 9a32 0f3e cab8 cb3c 6ce3 0d3e
000001c0: 9b3b dcbe 7b55 8b3d cb51 f33e f96c 813e
000001d0: e572 e13d a6d5 d3bb e013 ef3d 5268 0b3f
000001e0: 87a8 003e 4540 ca3c 7895 8dbe a895 1a3e
000001f0: 95b6 633e d2ac f7bd f647 563e bb9f 213d
00000200: c0fd 56be f3ef 07be 1a99 3fbe ec42 22bf
00000210: 15e6 923e 1108 e7bd a2eb 623e f405 e93e
00000220: eeb2 8abe 2aaa 3c3e 6cbd e63d 0a78 8dbe
00000230: 13b9 c3bd c163 023f 7908 aabd 4170 3dbe
00000240: b997 6b3e 404b 8fbd b2ca 883d 6c39 4fbd
00000250: 24ac eb3d 0893 39be 0b6a 373e 64a6 0c3f
00000260: 36de 603c 35c7 123e 7a0d 103e cb36 3ebe
00000270: ded2 943e b566 c4bd 80ae 5e3e d489 9e3d
00000280: 75df 83bd ae17 acbd d5a2 873e 605b 5b3e
00000290: 2be6 15bf fec0 cd3d 7868 423e da1c 8f3d
000002a0: 26c7 803e 77b1 f2be aed1 e7be eac2 4bbd
000002b0: ffae 823e 87c9 88bd 2828 a6be 3886 85be
000002c0: 765c dfbd 192e 2d3e 399a 993d c115 233e
000002d0: 1f7e 913e 7f50 76bd b414 f9be 12b0 923d
000002e0: aba2 acbc 3251 86be e2d5 253e 48f1 e73c
000002f0: ec4e 8c3e 9a99 c2bd 0045 d23d 058e 0cbc
00000300: 86ed 40bd 4cbb 6d3e 2a8e 46be ce8a 303b
00000310: 86c5 af3e 872e 6bbe 4f6b 70be 412f bc3e
00000320: c360 a8be 7234 013e f0a0 10bf 64f7 06be
00000330: 9d7d c83d 3c2f f4bd e46d 4fbe e3cd b33d
00000340: b8c5 2bbe f327 1c3d 458e 463e 914e 12bd
00000350: 28dd 823e b50a 423e 6850 993e 25dd 053f
00000360: 855c 4b3e e56c 9b3e 484c 41bb fcf7 9f3e
00000370: c673 0bbe 9f8d e23d e0e7 56be 2b8e 36bd
00000380: c4fa 133e a3cb b0be b7d4 3ebe 647e dc3e
00000390: e4d3 84bd abe0 11bd 0caf 7fbe 5ae5 25bd
000003a0: 2c05 53be 3d70 d43d 30a3 c73e cb15 943e
000003b0: eebf 6dbe ee1f 67be 84ab 05bd 7cfc 903e
000003c0: ab27 64be 42be 99bd 6e5f 59bd 26a5 6cbe
000003d0: 08c5 f5be 8e42 1a3e 9e44 1dbe 6d6a 993e
000003e0: ea89 88be e566 03bd dbf6 2ebd 6e3a 5e3d
000003f0: fe7d ac3e b812 8bba 2281 ab3e 2446 683e

lstm.weight_hh_l0 f4 [128, 32]
0.043683674 0.20608443 -0.23239058 0.47765672 -0.22030704 -0.007273504 0.3097608 -0.020303288
0.10527308 0.30128536 0.25133598 -0.012727968 -0.0675467 -0.15056638 0.25132987 0.23632349
-0.15280044 0.3152223 -0.17495243 -0.14675605 0.24946639 0.09452545 0.28709978 0.08076228
-0.22302951 0.029189112 -0.15127784 -0.22430116 0.14553009 -0.09148072 0.47014472 -0.07523278
-0.1451347 0.26632243 -0.38173065 -0.02833842 -0.23907958 -0.2250224 0.04897938 -0.39681053
-0.3500117 -0.21973124 -0.104410104 0.14282337 0.04619466 -0.09113378 -0.33159018 0.3838597
-0.17575681 0.34083655 0.4158594 0.06445699 -0.4382695 0.12388386 0.15405759 0.29672435
0.2251057 -0.06107781 -0.06330853 0.22230756 0.17780297 0.17865655 -0.13672203 0.05466536
0.026774757 0.017784277 0.04314074 -0.012661567 0.061728638 -0.15349825 -0.15357663 0.15142325
-0.122822516 -0.039862093 0.1514639 -0.23004903 -0.16500272 0.127568 0.08780839 -0.12542468
0.019137196 -0.012673861 0.047053836 0.037892304 0.27420944 0.43101338 -0.15948544 0.005513612
0.18082835 -0.3180886 0.23632516 0.29008186 0.11286213 -0.059940226 0.089556925 0.40237638
-0.009434254 0.16045792 -0.055356443 0.08234768 -0.19277108 -0.3368665 0.08745788 -0.002262635
0.33258608 0.28885862 -0.19709079 -0.0130219925 0.40393123 -0.29055783 0.17538224 0.01720894
-0.12283621 0.16027783 0.077933714 -0.030871721 -0.059017316 0.36725286 -0.19869474 0.0011735173
-0.269464 -0.31176752 0.09691323 0.093788646 0.050523844 -0.0035721816 -0.014180072 0.021771435
-0.00024222143 -0.24771573 0.16175859 -0.076144196 0.07552917 0.06930061 0.14412044 -0.19795188
0.24206778 0.50431216 -0.27281165 0.11156874 0.25959134 0.18779254 0.10424908 -0.070540145
-0.41182375 -0.45826942 -0.2613877 -0.03182274 -0.07033351 -0.08278334 -0.18576406 -0.16525963
0.21483395 0.065723345 0.27157757 -0.11323018 -0.08434819 -0.10768033 -0.35207748 -0.0404577
-0.07849903 -0.5344672 -0.2644336 -0.16445705 0.1508932 -0.0095799705 0.106927074 -0.22954898
0.29767662 -0.0042374074 -0.404201 0.17869364 0.8093533 -0.23092772 -0.06023516 0.40711865
-0.2558859 0.5415136 -0.1522405 -0.24291292 -0.03189238 0.084769286 0.099031284 0.13884078
0.110846974 0.49560225 0.2243513 0.37868735 0.14687382 -0.21276295 0.3871943 -0.21274129
-0.056462713 0.058402855 -0.13869484 -0.28968042 -0.07512464 0.056477703 0.0001550079 -0.12727223
0.38327694 0.051115364 0.040272214 0.009680697 -0.13476004 0.17959273 -0.23843136 0.09097998
-0.45323274 0.14563121 -0.03850334 -0.21154611 -0.21288557 -0.18609884 0.30464762 -0.017297683
-0.52451736 -0.3716746 0.22584687 0.5775603 0.07672723 -0.039682813 -0.009918542 0.0954655
-0.12357449 0.17310892 0.19232947 -0.04536805 -0.04976076 0.25398698 -0.45731103 0.2835147
0.17302643 -0.33420813 0.07099784 -0.28687918 0.23446146 -0.07666984 0.08783417 -0.29087925
-0.07283963 -0.023996485 0.10525356 -0.03378589 0.1267446 -0.35193846 0.013564681 0.31106594
-0.34299523 0.27065548 -0.21716441 -0.41956118 0.1485683 -0.31973463 0.28576127 -0.09550135
00000000: a7ed 323d cc07 533e ccf7 6dbe 6c8f f43e
00000010: 2b98 61be 9356 eebb f898 9e3e 1553 a6bc
00000020: 6a99 d73d 1342 9a3e 1caf 803e f888 50bc
00000030: ed55 8abd 132e 1abe 4fae 803e c9fe 713e
00000040: b877 1cbe d164 a13e bb26 33be 3847 16be
00000050: 1e74 7f3e 8f96 c13d befe 923e b266 a53d
00000060: d961 64be 011e ef3c 94e8 1abe 34af 65be
00000070: d705 153e 3e5a bbbd cfb6 f03e a513 9abd
00000080: 319e 14be 6a5b 883e 3372 c3be f925 e8bc
00000090: 47d1 74be 466c 66be 9a9e 483d c02a cbbe
000000a0: bc34 b3be 3a01 61be f7d4 d5bd 4a40 123e
000000b0: 9d36 3d3d 59a4 babd 30c6 a9be 4289 c43e
000000c0: 98f9 33be 2182 ae3e 86eb d43e 0702 843d
000000d0: dc64 e0be d2b6 fd3d 46c1 1d3e 41ec 973e
000000e0: 1c82 663e ba2c 7abd e7a7 81bd 98a4 633e
000000f0: fb11 363e bef1 363e dc00 0cbe c9e8 5f3d
00000100: bc56 db3c 55b0 913c 58b4 303d 7672 4fbc
00000110: 2bd7 7c3d a52e 1dbe 3143 1dbe b20e 1b3e
00000120: 5f8a fbbd 6f46 23bd 5a19 1b3e f991 6bbe
00000130: 79f6 28be 30a1 023e e3d4 b33d 546f 00be
00000140: 9cc5 9c3c 07a6 4fbc 86bb 403d f634 1b3d
00000150: 2e65 8c3e c9ad dc3e 2750 23be 88ab b43b
00000160: 112b 393e 82dc a2be 39ff 713e 9c85 943e
00000170: 4324 e73d e283 75bd 9f69 b73d 4704 ce3e
00000180: 2192 1abc 154f 243e 70bd 62bd e7a5 a83d
00000190: c865 45be c479 acbe 1e1d b33d b748 14bb
000001a0: b948 aa3e 47e5 933e 2bd2 49be 325a 55bc
000001b0: 13d0 ce3e ffc3 94be 6797 333e c3f9 8c3c
000001c0: 8d91 fbbd df1f 243e b69b 9f3d b1e6 fcbc
000001d0: 24bc 71bd 9108 bc3e a276 4bbe b5d0 993a
000001e0: 2ff7 89be fe9f 9fbe 727a c63d 4314 c03d
000001f0: 17f2 4e3d 431b 6abb 8853 68bc 025a b23c
00000200: d2fc 7db9 31a9 7dbe 0ba4 253e 7df1 9bbd
00000210: 0aaf 9a3d 7aed 8d3d 4f94 133e e6b3 4abe
00000220: 9ee0 773e 9a1a 013f f8ad 8bbe 277e e43d
00000230: 28e9 843e b04c 403e 8b80 d53d 5a77 90bd
00000240: 90da d2be 4aa2 eabe 9cd4 85be 9058 02bd
00000250: 040b 90bd 508a a9bd ef38 3ebe d239 29be
00000260: 6efd 5b3e f699 863d 370c 8b3e 3ae5 e7bd
00000270: bebe acbd 8187 dcbd 8043 b4be f9b6 25bd
00000280: 19c4 a0bd d8d2 08bf d763 87be 6e67 28be
00000290: bf83 1a3e 4ff5 1cbc 95fc da3d e30e 6bbe
000002a0: 1269 983e f3d9 8abb 6ff3 cebe 77fb 363e
000002b0: c731 4f3f 5178 6cbe 25b9 76bd db71 d03e
000002c0: 7a03 83be a3a0 0a3f efe4 1bbe 2abe 78be
000002d0: 96a1 02bd 859b ad3d ead0 ca3d 472c 0e3e
000002e0: bd03 e33d 94bf fd3e 59bc 653e 4fe3 c13e
000002f0: 1766 163e 88de 59be 553e c63e dad8 59be
00000300: 7245 67bd d537 6f3d 0506 0ebe fe50 94be
00000310: f2da 99bd 2a55 673d 9e89 2239 a753 02be
00000320: e03c c43e 585e 513d 7af4 243d c99b 1e3c
00000330: 89fe 09be 28e7 373e 5a27 74be b653 ba3d
00000340: 1f0e e8be 5920 153e aeb5 1dbd 8b9f 58be
00000350: adfe 59be b290 3ebe c6fa 9b3e dfb3 8dbc
00000360: c546 06bf 224c bebe 6744 673e feda 133f
00000370: 2a23 9d3d 728a 22bd 6181 22bc 6b83 c33d
00000380: 9f14 fdbd 7743 313e 04f2 443e d9d3 39bd
00000390: f0d1 4bbd 950a 823e ac24 eabe d728 913e
000003a0: d72d 313e 541d abbe 5167 913d d4e1 92be
000003b0: aa16 703e 1405 9dbd 67e2 b33d 20ee 94be
000003c0: f22c 95bd 4794 c4bc 2e8f d73d 1363 0abd
000003d0: 56c9 013e 4731 b4be 653e 5e3c 0944 9f3e
000003e0: 129d afbe 5b93 8a3e 5960 5ebe b9d0 d6be
000003f0: 4a22 183e 42b4 a3be 4d4f 923e 3696 c3bd

lstm.bias_ih_l0 f4 [128]
0.012564814 0.12139191 0.15835643 0.017149901 0.13078368 0.0015892419 0.088818744 0.39399552
0.014270228 0.33519647 0.305527 0.072250664 0.40071493 0.2619919 0.11947398 0.112497464
0.31569517 -0.079597786 0.109706774 0.16241524 0.12868524 0.1963698 0.15803389 0.05506895
0.10050274 -0.07894022 0.106558114 0.06723512 -0.037556205 0.25029498 0.2586124 0.2176354
-0.09678596 0.0016510943 0.08949959 0.097795784 0.21011527 0.090906106 0.13490477 -0.0892462
-0.05348556 0.19121899 0.012550576 0.12359047 -0.12055057 0.18587539 -0.022825161 -0.083052084
-0.222643 0.073462695 0.22683348 -0.07236999 0.1900643 0.04413521 -0.17497963 0.012102774
-0.0767602 -0.12877603 -0.050055616 0.10275891 -0.086181514 0.2743335 0.11028869 -0.07128148
0.22973241 -0.015337 0.04475756 0.022601807 0.19284482 -0.13614206 0.0021262805 0.11934302
-0.039970376 0.07505131 0.120302714 0.029570442 0.05465022 -0.0007123058 -0.058964208 -0.1406501
-0.07648254 -0.08771126 0.12645808 -0.14593646 -0.0462542 0.09297711 -0.08793665 -0.10594456
0.19953965 0.07750421 -0.05554084 0.10657242 0.21269701 -0.000617258 -0.13834165 0.22153331
0.14419648 0.26173553 0.3019644 0.3931734 0.16658607 0.06558792 0.1613334 0.16122025
0.18830708 0.17708883 0.18941537 0.046917416 0.39002627 0.25905937 0.1995399 0.2035026
0.29200685 0.13213924 0.031246206 0.23547336 0.3495528 0.2460421 0.32354456 0.18396819
0.15675919 0.21006286 0.11503698 0.023788597 -0.010925963 0.3312277 0.22174384 0.2309678
00000000: a6dc 4d3c 529c f83d 3028 223e f37d 8c3c
00000010: 28ec 053e 1c4e d03a 9ae6 b53d c8b9 c93e
00000020: adcd 693c df9e ab3e 096e 9c3e 28f8 933d
00000030: 822a cd3e cd23 863e c6ae f43d 1265 e63d
00000040: cca2 a13e 2a04 a3bd f2ad e03d 2e50 263e
00000050: 10c6 033e 2a15 493e a3d3 213e fb8f 613d
00000060: 61d4 cd3d 69ab a1bd 243b da3d 91b2 893d
00000070: 89d4 19bd aa26 803e d868 843e d0db 5e3e
00000080: b837 c6bd 8869 d83a 904b b73d 2849 c83d
00000090: 7528 573e fb2c ba3d 7a24 0a3e b6c6 b6bd
000000a0: ad13 5bbd e9ce 433e eea0 4d3c 001d fd3d
000000b0: 38e3 f6bd 1e56 3e3e d5fb babc 3617 aabd
000000c0: 87fc 63be 9c73 963d 0947 683e b836 94bd
000000d0: 37a0 423e 1fc7 343d dc2d 33be b74a 463c
000000e0: 7434 9dbd dddd 03be 1e07 4dbd 4373 d23d
000000f0: ef7f b0bd 7175 8c3e 09df e13d 06fc 91bd
00000100: f93e 6b3e 0a48 7bbc b453 373d 6d27 b93c
00000110: 1d79 453e d368 0bbe 1159 0b3b 1d6a f43d
00000120: fab7 23bd 80b4 993d 4561 f63d b63d f23c
00000130: e9d8 5f3d 08ba 3aba 7484 71bd 9406 10be
00000140: e1a2 9cbd f6a1 b3bd 3a7e 013e 5e70 15be
00000150: 0b75 3dbd c86a be3d 2118 b4bd 76f9 d8bd
00000160: 1f54 4c3e 87ba 9e3d cb7e 63bd a442 da3d
00000170: 3fcd 593e 7ccf 21ba 6fa9 0dbe a1d9 623e
00000180: 3ea8 133e 3302 863e 149b 9a3e 064e c93e
00000190: 8a95 2a3e f652 863d 9534 253e ec16 253e
000001a0: 92d3 403e c656 353e 1af6 413e 7a2c 403d
000001b0: 86b1 c73e 6ea3 843e 3054 4c3e fc62 503e
000001c0: ec81 953e 824f 073e 0bf8 ff3c ee1f 713e
000001d0: 96f8 b23e 76f2 7b3e a2a7 a53e 2862 3c3e
000001e0: 7b85 203e b81a 573e 8298 eb3d 4ee0 c23c
000001f0: cf02 33bc ad96 a93e d110 633e d382 6c3e

lstm.bias_hh_l0 f4 [128]
0.1416552 -0.019427698 0.17641956 -0.020591997 0.36074382 0.31815958 0.14164077 0.13509394
0.026406558 0.054727502 0.120142035 -0.07280645 0.4487968 0.26918486 0.25881228 0.1755785
0.28445375 -0.16946074 0.20123377 0.09127219 -0.04421932 0.32288745 0.062148772 0.24965923
0.33045647 0.00084987143 0.07354586 0.13601339 0.22799148 0.1364827 0.06739289 0.45579347
-0.020846147 0.1997208 0.16615875 0.03696832 0.08885945 -0.08499124 0.23797409 -0.004089163
-0.0841906 -0.0119849425 0.11319175 0.1584415 0.0769481 0.17927623 0.126019 0.095926225
-0.0031065356 0.061039716 0.008560463 0.07631855 -0.096217565 0.1718029 0.008361407 0.2270956
0.1912215 0.06608738 -0.1813071 -0.019136861 0.13435277 0.10692957 0.35802978 0.11225256
0.11062235 -0.01602955 0.11755044 -0.19407235 0.109452374 -0.23141961 0.024325294 0.21263283
0.018182535 0.1789328 0.15935285 -0.12099897 0.20950823 0.0041568275 -0.049444485 -0.11637992
-0.18310452 -0.15089948 0.14744934 -0.0028715227 0.14764865 0.13894507 0.057659194 0.03796834
0.043893453 -0.07827378 -0.097107574 0.21007906 0.050546434 0.086667396 -0.043040134 0.24870071
0.2904326 0.082796924 0.33768922 0.23318863 0.15649071 0.16709784 0.26443246 0.057501927
0.30379412 0.15761833 0.21770439 0.28057817 0.16234785 0.091850035 0.31168273 0.26421848
0.2121409 0.2570038 0.28497374 0.4222762 0.26223823 0.016014412 0.26409152 0.08988236
0.15028493 0.1491861 0.269794 0.004046601 0.053237367 0.2795942 0.14546177 0.3777375
00000000: 100e 113e d626 9fbc 54a7 343e 8cb0 a8bc
00000010: 6ab3 b83e d0e5 a23e 470a 113e 1156 0a3e
00000020: 9152 d83c f229 603d 070d f63d 8c1b 95bd
00000030: b2c8 e53e 99d2 893e 0b83 843e daca 333e
00000040: eca3 913e 1e87 2dbe 3a10 4e3e eaec ba3d
00000050: 511f 35bd 8151 a53e b68f 7e3d aba6 7f3e
00000060: 9731 a93e e8c9 5e3a 369f 963d 1847 0b3e
00000070: 9976 693e 1fc2 0b3e 4905 8a3d c35d e93e
00000080: 8ac5 aabc 9c83 4c3e 8525 2a3e 186c 173d
00000090: f1fb b53d e30f aebd 7baf 733e 63fe 85bb
000000a0: 1f6c acbd 7e5c 44bc 14d1 e73d 7d3e 223e
000000b0: f796 9d3d 3094 373e 200b 013e f874 c43d
000000c0: 0597 4bbb c804 7a3d 2f41 0c3c e64c 9c3d
000000d0: b70d c5bd 19ed 2f3e 48fe 083c c08b 683e
000000e0: 92cf 433e d258 873d 92a8 39be e8c4 9cbc
000000f0: c693 093e e4fd da3d ae4f b73e ace4 e53d
00000100: f88d e23d 6750 83bc 49be f03d e7ba 46be
00000110: 9128 e03d 43f9 6cbe d745 c73c 6cbc 593e
00000120: 8af3 943c 293a 373e 652d 233e 4fce f7bd
00000130: 5389 563e ff35 883b 4d86 4abd 9858 eebd
00000140: c07f 3bbe 6585 1abe f6fc 163e 2830 3cbb
00000150: 3531 173e 9e47 0e3e 0c2c 6c3d b184 1b3d
00000160: 9fc9 333d 014e a0bd 56e0 c6bd f71e 573e
00000170: c709 4f3d ad7e b13d da4a 30bd 66ab 7e3e
00000180: 95b3 943e 6f91 a93d 9ae5 ac3e 00c9 6e3e
00000190: 1a3f 203e b21b 2b3e b163 873e 2487 6b3d
000001a0: e78a 9b3e b366 213e e6ed 5e3e f1a7 8f3e
000001b0: 843e 263e df1b bc3d e194 9f3e a547 873e
000001c0: 773b 593e 0196 833e 14e8 913e 9634 d83e
000001d0: 1744 863e a830 833c 0137 873e 3e14 b83d
000001e0: 4be4 193e 3ec4 183e 7022 8a3e 5999 843b
000001f0: 6d0f 5a3d f926 8f3e eef3 143e cf66 c13e

lstm.weight_ih_l1 f4 [128, 32]
-0.09400394 0.17603081 -0.20680694 -0.148629 0.19735464 0.1363576 -0.007410457 -0.2432008
-0.04950515 -0.21259907 -0.3356292 0.36480153 -0.51131046 -0.06672739 0.04757416 -0.07488656
-0.11517828 0.31628475 0.048223626 -0.13859668 -0.08770409 0.21818198 0.32787368 0.28362826
0.07953593 -0.32234877 -0.13641907 0.14153627 -0.027508076 0.06180039 0.11214742 -0.13140057
-0.061257213 0.08634197 -0.13233079 -0.051580165 -0.030440157 -0.32113057 -0.17041604 -0.24581477
0.30374143 -0.12337881 -0.059906337 -0.19561109 0.012040432 -0.10197982 0.32375458 0.14123504
-0.3525259 0.075876154 -0.027826713 0.007966344 -0.10109816 0.38659465 0.25962198 0.09286653
-0.038718536 0.12528719 -0.088966645 0.071208864 -0.24907519 0.45733207 0.48697734 -0.41241214
0.02649946 0.15478069 -0.27191213 -0.26526004 -0.13271593 -0.23507571 -0.3045322 -0.057708606
-0.12526485 -0.5030055 0.37585616 -0.332538 0.04389713 0.33640325 -0.27413985 -0.002625905
-0.32663596 0.17081244 0.34159628 -0.17881413 -0.118963405 0.0055898856 0.06292545 0.09166164
-0.061342247 0.019745925 -0.06716712 -0.086979695 0.1515657 0.17477842 0.20667423 0.24982171
-0.11144705 0.1420871 0.1093748 -0.119507425 0.28013086 0.3969199 0.12602459 0.29916868
0.2278375 -0.05460383 0.41932493 -0.106039144 -0.11592187 0.16247366 -0.2050552 -0.41917577
0.010261676 0.18737613 -0.15999514 0.40734616 0.19073892 -0.19412206 -0.10630774 -0.030654266
0.098170474 -0.1738473 0.18053618 -0.18945925 -0.42628565 0.11862763 -0.027353164 0.17819412
0.1012723 0.18953215 0.03653796 -0.14493181 0.26057392 -0.09278628 0.23981357 -0.15317032
-0.06314019 0.18822964 0.23932606 -0.20523128 0.053687144 -0.2048543 0.14717579 0.035499763
0.05417412 0.21165958 -0.2336605 -0.37753737 -0.11084328 0.14689419 -0.42178196 0.3159982
-0.27733964 -0.13609473 0.049179863 -0.12792405 -0.09510643 -0.17351 0.24979223 -0.15835871
-0.30525914 0.5667387 -0.23873423 -0.16728242 -0.16131102 0.02774492 0.35407907 0.035678897
0.16199636 -0.55889255 0.027301801 0.038100705 0.087346084 0.24854006 -0.0669519 -0.049175296
0.31416568 0.13033257 0.19645624 0.22857694 0.021059519 0.004604933 -0.3890269 0.19575685
-0.22078723 -0.25144956 0.073682666 0.04658008 -0.09153368 0.17817618 0.118308425 0.042682696
0.09524341 0.01424965 -0.012659237 0.47228372 0.0810357 -0.47224802 0.035286848 -0.11246935
-0.006055322 -0.21432737 0.021371348 -0.44129044 -0.1612309 0.3709088 0.018431285 0.24712837
0.08914054 0.18489416 0.14252748 0.09673159 0.0738869 0.38107368 0.13729164 -0.30985597
0.0429917 0.3086608 -0.1689154 -0.08489768 0.091711596 0.06962147 0.40171686 0.2982606
0.2039797 -0.03156863 -0.12638696 -0.074802555 -0.14855298 -0.032457504 -0.33442003 -0.07438112
-0.2601478 -0.045213062 0.042530645 0.13584103 0.17255063 0.003658042 0.05783904 -0.03337959
-0.29648972 -0.4039619 0.14072488 -0.07943795 -0.08763217 0.07937351 -0.10519174 -0.24236633
-0.020541484 0.30079383 -0.3169114 0.015036953 0.071281895 0.2574336 -0.3062795 -0.1665564
00000000: 2385 c0bd 6c41 343e 33c5 53be 3332 18be
00000010: 5617 4a3e 54a1 0b3e 6bd3 f2bb a109 79be
00000020: eac5 4abd 92b3 59be 97d7 abbe 44c7 ba3e
00000030: 3ee5 02bf 5fa8 88bd 1fdd 423d 205e 99bd
00000040: 97e2 ebbd 13f0 a13e 2386 453d 4aec 0dbe
00000050: 349e b3bd 196b 5f3e 0fdf a73e b937 913e
00000060: bce3 a23d e60a a5be 71b1 0bbe e2ee 103e
00000070: 9e58 e1bc 6822 7d3d 8cad e53d df8d 06be
00000080: d8e8 7abd 0fd4 b03d b981 07be b945 53bd
00000090: a35d f9bc 3a6b a4be 8b81 2ebe deb6 7bbe
000000a0: ff83 9b3e 08ae fcbd 5960 75bd 464e 48be
000000b0: 3b45 453c ccda d0bd 29c3 a53e eb9f 103e
000000c0: 467e b4be f564 9b3d d9f4 e3bc 4585 023c
000000d0: 8d0c cfbd bcef c53e 2ced 843e cf30 be3d
000000e0: 5497 1ebd 494b 003e 2534 b6bd f4d5 913d
000000f0: 910d 7fbe 6e27 ea3e 1855 f93e af27 d3be
00000100: 6515 d93c d47e 1e3e 1138 8bbe 2ad0 87be
00000110: afe6 07be b0b7 70be a5eb 9bbe dc5f 6cbd
00000120: 6e45 00be f8c4 00bf 3870 c03e 6c42 aabe
00000130: 7acd 333d 0c3d ac3e 0f5c 8cbe 6017 2cbb
00000140: d43c a7be 75e9 2e3e b5e5 ae3e 0d1b 37be
00000150: 16a3 f3bd 5c2b b73b 0fdf 803d 19b9 bb3d
00000160: 0242 7bbd 35c2 a13c ea8e 89bd 6922 b2bd
00000170: 0a34 1b3e 1df9 323e 69a2 533e 43d1 7f3e
00000180: 5a3e e4bd 487f 113e e5ff df3d 4fc0 f4bd
00000190: 506d 8f3e 1639 cb3e 970c 013e a32c 993e
000001a0: 3c4e 693e 44a8 5fbd c2b1 d63e 0d2b d9bd
000001b0: 7268 edbd 7f5f 263e fef9 51be 359e d6be
000001c0: 9720 283c 87df 3f3e c4d5 23be ad8f d03e
000001d0: 1051 433e efc7 46be dfb7 d9bd a81e fbbc
000001e0: 9a0d c93d 0705 32be 7ade 383e 9b01 42be
000001f0: 1d42 dabe 0bf3 f23d be13 e0bc 8578 363e
00000200: da67 cf3d b714 423e d4a8 153d 0169 14be
00000210: f269 853e bc06 bebd b091 753e aed8 1cbe
00000220: a54f 81bd 45bf 403e e411 753e 2628 52be
00000230: 0de7 5b3d 53c5 51be 40b5 163e 3368 113d
00000240: afe5 5d3d 4abd 583e b344 6fbe 944c c1be
00000250: cd01 e3bd 6e6b 163e cef3 d7be 84ca a13e
00000260: 76ff 8dbe 6b5c 0bbe d370 493d 86fe 02be
00000270: 29c7 c2bd 9bac 31be 89c9 7f3e c928 22be
00000280: ed4a 9cbe ca15 113f bf76 74be 154c 2bbe
00000290: b72e 25be 5149 e33c da49 b53e 0924 123d
000002a0: 60e2 253e 9513 0fbf 07a8 df3c 7c0f 1c3d
000002b0: 81e2 b23d 4981 7e3e 141e 89bd 096c 49bd
000002c0: 53da a03e e775 053e d32b 493e 1310 6a3e
000002d0: 0385 ac3c fae4 963b 892e c7be 7c74 483e
000002e0: 0c16 62be ffbd 80be f0e6 963d c1ca 3e3d
000002f0: 0376 bbbd d173 363e b04b f23d 0dd4 2e3d
00000300: fa0e c33d 5d77 693c b068 4fbc 2ccf f13e
00000310: 0cf6 a53d 7eca f1be f188 103d 5556 e6bd
00000320: b96b c6bb a278 5bbe f712 af3c d2f0 e1be
00000330: b719 25be c2e7 bd3e 35fd 963c 380f 7d3e
00000340: 518f b63d e554 3d3e b9f2 113e 361b c63d
00000350: 0452 973d 171c c33e 2e96 0c3e 71a5 9ebe
00000360: 1118 303d ca08 9e3e 29f8 2cbe d6de adbd
00000370: 4ad3 bb3d b495 8e3d d5ad cd3e 9db5 983e
00000380: 0ee0 503e 1c4e 01bd 956b 01be 1532 99bd
00000390: 461e 18be 29f2 04bd 1a39 abbe 2155 98bd
000003a0: 1832 85be 5531 39bd 9d34 2e3d e919 0b3e
000003b0: 1db1 303e c3bb 6f3b a1e8 6c3d 09b9 08bd
000003c0: 80cd 97be 18d4 cebe 2f1a 103e 5db0 a2bd
000003d0: 7f78 b3bd 948e a23d c46e d7bd e12e 78be
000003e0: 9d46 a8bc a601 9a3e 3642 a2be 8d5d 763c
000003f0: 3efc 913d 56ce 833e abd0 9cbe c38d 2abe

lstm.weight_hh_l1 f4 [128, 32]
0.14988168 0.23312062 0.16709839 0.15497312 -0.1828176 0.42946506 0.17669983 0.22923695
-0.19543454 0.06364446 -0.035331503 -0.59159344 0.060992993 0.061276503 -0.14589985 0.14612862
-0.06226805 -0.26883897 -0.22157992 -0.048946954 -0.22387663 0.28594905 -0.0015074867 0.12907325
-0.068793744 0.18956673 0.034914076 0.09809221 0.050547477 0.08307355 0.23999186 -0.058025464
0.2080105 0.15470515 -0.117899284 0.12550515 0.07217387 0.12712911 -0.26778498 -0.05999251
0.16431066 -0.38296476 -0.28255615 -0.24004416 -0.080292776 -0.24254097 0.0041440185 0.034544624
0.3838054 -0.3151149 -0.072962604 -0.22717908 -0.20624694 0.15180008 0.071203694 0.3715721
-0.20136839 0.22271925 -0.052594256 -0.06732974 0.09687351 0.12100874 -0.037226364 -0.0033744625
0.29497355 -0.09445811 -0.039956808 -0.17281778 0.4394835 -0.17900093 0.13275442 -0.41292956
0.3980155 -0.21669309 0.034478564 -0.3230213 0.006469292 -0.23969778 -0.081572406 0.22548166
0.19317472 -0.15200502 -0.007831456 -0.18710558 0.07840845 0.030037196 -0.12244147 0.0061036544
-0.26839843 0.103654094 -0.19908677 0.05084243 0.042714156 0.18100865 -0.3836214 -0.014952298
0.11281751 -0.08764075 0.1580401 -0.10540028 0.21112856 -0.04588918 -0.28187457 -0.12486308
-0.55610865 0.0019214372 -0.25084805 -0.07204821 0.24252105 0.09585733 -0.18895745 0.10946291
-0.032083306 0.2861815 0.17821625 -0.1095414 -0.16398367 0.02358223 -0.14278686 0.37978083
-0.27847093 -0.101485215 0.050377216 0.07296679 0.29439256 0.0019708015 0.068596415 0.080520906
-0.15510486 -0.1484464 0.59647506 0.13798586 0.08128515 -0.19980562 -0.010861441 0.07437588
0.25592792 -0.24734367 0.18313856 0.07827643 -0.014236379 -0.14813927 -0.11305433 0.21519437
0.08079842 -0.14775789 0.079311915 0.11306063 -0.004488753 -0.3011601 -0.123974256 0.15501344
-0.16190855 0.18731754 -0.047801517 0.23328978 0.12100256 0.23321858 -0.15207142 -0.066247925
0.2903332 -0.14722495 -0.090221964 0.15419947 0.16456419 -0.18789975 0.09048871 0.1401029
-0.0036168497 -0.05174379 -0.011146927 0.1859635 0.16175435 -0.15914859 -0.04761934 0.20986947
-0.23495555 -0.19094296 0.20745614 -0.285806 -0.14769755 -0.019004619 0.18580517 0.065280095
-0.07341762 0.21741217 -0.344578 0.14105251 -0.009098711 0.112713605 -0.29302126 0.23107639
0.22382721 -0.2204821 0.06098486 -0.33981198 0.13143495 0.0037239236 0.061892718 -0.09905495
-0.09348178 -0.07878586 -0.16175932 -0.14689767 0.066277705 -0.13962011 -0.07621785 0.24667773
0.18574454 0.092035845 -0.2715582 0.029858885 0.16289103 0.4173005 0.3298822 0.041147154
0.08742869 0.0050064684 -0.26809227 -0.09910965 0.025266934 0.0061977683 0.097579695 -0.040057175
0.0477936 0.1306466 -0.053428184 0.04215534 0.20783354 0.0013730021 -0.12739253 0.18878536
0.0378708 -0.030473642 -0.22156112 -0.007954841 -0.1828381 -0.1755652 -0.17816024 0.25551516
0.4327859 -0.12670837 0.14499727 -0.28985235 0.04122003 0.20232008 0.06971272 0.31886208
0.022309123 -0.024033263 -0.12432741 0.15544772 -0.15756975 -0.034024447 0.10549485 -0.045656685
00000000: 957a 193e 2cb7 6e3e d71b 2b3e 46b1 1e3e
00000010: 8934 3bbe d8e2 db3e cdf0 343e 17bd 6a3e
00000020: fe1f 48be 0758 823d c4b7 10bd ab72 17bf
00000030: cad3 793d 12fd 7a3d c566 15be bea2 153e
00000040: c80c 7fbd 43a5 89be d9e5 62be 9a7c 48bd
00000050: ea3f 65be ea67 923e dc96 c5ba c72b 043e
00000060: bce3 8cbd c81d 423e 1002 0f3d 92e4 c83d
00000070: df0a 4f3d 7722 aa3d 6dc0 753e 1cac 6dbd
00000080: b400 553e 076b 1e3e 2e75 f1bd 6c84 003e
00000090: e5cf 933d 222e 023e 1d1b 89be b5ba 75bd
000000a0: 0e41 283e f513 c4be 33ab 90be 23ce 75be
000000b0: 8a70 a4bd a95c 78be 8cca 873b aa7e 0d3d
000000c0: 2482 c43e bd56 a1be 6b6d 95bd a2a1 68be
000000d0: 6632 53be 7b71 1b3e 3ed3 913d b33e be3e
000000e0: 8433 4ebe 8410 643e 136d 57bd 2de4 89bd
000000f0: 9e65 c63d 6ed3 f73d ac7a 18bd 1626 5dbb
00000100: c606 973e 4173 c1bd c0a9 23bd 25f7 30be
00000110: fb03 e13e 054c 37be c6f0 073e 816b d3be
00000120: b0c8 cb3e cbe4 5dbe 6539 0d3d 0c63 a5be
00000130: 5bfc d33b 5673 75be 6f0f a7bd aae4 663e
00000140: 98cf 453e 34a7 1bbe 824f 00bc 9b98 3fbe
00000150: 9c94 a03d 9110 f63c 98c2 fabd 2a01 c83b
00000160: 856b 89be 9948 d43d 67dd 4bbe 2740 503d
00000170: 0af5 2e3d 555a 393e 066a c4be 7cfa 74bc
00000180: de0c e73d fe7c b3bd 44d5 213e 1adc d7bd
00000190: 1632 583e 4bf6 3bbd dd51 90be 37b8 ffbd
000001a0: 235d 0ebf bcd8 fb3a 286f 80be 038e 93bd
000001b0: 7057 783e d950 c43d 107e 41be 172e e03d
000001c0: c969 03bd 6286 923e 527e 363e 3e57 e0bd
000001d0: 56eb 27be 852f c13c b836 12be a272 c23e
000001e0: be93 8ebe 7bd7 cfbd 5758 4e3d 9d6f 953d
000001f0: 9fba 963e 9028 013b 477c 8c3d 25e8 a43d
00000200: cfd3 1ebe 5502 18be 97b2 183f 2a4c 0d3e
00000210: d478 a63d d899 4cbe 2ff4 31bc 6252 983d
00000220: fc08 833e a947 7dbe ad88 3b3e 654f a03d
00000230: b43f 69bc d2b1 17be 0789 e7bd ea5b 5c3e
00000240: a479 a53d d84d 17be 496e a23d 558c e73d
00000250: 6416 93bb a831 9abe 37e6 fdbd d8bb 1e3e
00000260: 5bcb 25be 2bd0 3f3e 86cb 43bd 84e3 6e3e
00000270: 31d0 f73d dad0 6e3e 9cb8 1bbe feac 87bd
00000280: 8ea6 943e 23c2 16be 4bc6 b8bd 77e6 1d3e
00000290: 8483 283e cb68 40be 2552 b93d 2277 0f3e
000002a0: ab08 6dbb 4cf1 53bd 9aa1 36bc 376d 3e3e
000002b0: efa2 253e d9f7 22be 7f0c 43bd 06e8 563e
000002c0: 3098 70be 8d86 43be 626f 543e 2a55 92be
000002d0: 073e 17be 93af 9bbc b643 3e3e 92b1 853d
000002e0: fa5b 96bd 4ca1 5e3e 876c b0be 1270 103e
000002f0: c312 15bc 64d6 e63d e206 96be 4a9f 6c3e
00000300: f632 653e 0fc6 61be 43cb 793d d6fb adbe
00000310: e296 063e 120d 743b 3883 7d3d 52dd cabd
00000320: 6073 bfbd 7b5a a1bd 3ca4 25be 586c 16be
00000330: 9bbc 873d 93f8 0ebe 1b18 9cbd 1699 7c3e
00000340: d133 3e3e 4a7d bc3d ad09 8bbe 9f9a f43c
00000350: e8cc 263e 69a8 d53e 52e6 a83e eb89 283d
00000360: d00d b33d 4d0d a43b 6443 89be 00fa cabd
00000370: 9afc ce3c a616 cb3b ddd7 c73d fe12 24bd
00000380: 39c3 433d 39c8 053e 83d7 5abd 14ab 2c3d
00000390: 51d2 543e 4ef6 b33a 3073 02be f350 413e
000003a0: 691e 1b3d dca3 f9bc ebe0 62be 0555 02bc
000003b0: e939 3bbe 5dc7 33be a36f 36be e2d2 823e
000003c0: 1d96 dd3e d7bf 01be 2a7a 143e 8767 94be
000003d0: 56d6 283d ff2c 4f3e 8bc5 8e3d e441 a33e
000003e0: 9fc1 b63c 68e1 c4bc 5e9f febd b02d 1f3e
000003f0: f759 21be 385d 0bbd af0d d83d 8102 3bbd

lstm.bias_ih_l1 f4 [128]
0.10283611 0.098109975 0.3009099 0.052281562 0.10363968 0.22602084 0.2002847 0.17887339
-0.094008274 0.1569596 -0.101988874 0.12500632 -0.01093092 0.102944165 0.04973621 0.019967815
0.15704945 0.16915196 0.32834008 0.2080299 0.17266867 0.38186547 -0.017123543 0.077425726
0.2173791 0.10545491 0.21524265 -0.019158112 0.110615864 -0.02481799 0.3016153 0.25626397
-0.15170188 0.100532755 -0.07922891 0.13782378 0.10143312 0.029834576 0.10170803 0.084182285
-0.022337932 0.20711593 0.19387439 0.06666401 -0.05150974 0.12405995 0.06602889 0.046258684
0.08478754 0.09071157 -0.0459808 0.21406275 -0.05264595 0.006757521 0.16510046 -0.047712587
0.014051228 0.2012919 0.17675513 0.073089935 0.09124131 0.06859754 0.07212999 0.30702457
0.15709212 0.08234797 -0.124354474 0.12213514 -0.23705162 0.024114795 0.2229671 -0.019159097
0.08988777 0.19223128 0.09799164 0.10875752 -0.15985757 0.19541419 0.12099827 -0.10583399
-0.14997411 -0.110237226 0.027716197 0.22319117 -0.123094335 0.101780176 -0.063754655 0.064674124
0.062250774 0.028292187 0.3600738 -0.09584793 -0.114758484 -0.1060168 0.10251678 -0.12530486
0.30923748 0.0959447 0.2783282 0.027726652 0.049146164 0.17428994 0.17708714 0.085846424
0.015294291 0.27033508 0.1821662 -0.04762093 -0.021739863 0.11842139 0.20742555 0.014956007
2.9623829e-05 0.16659807 0.17693575 0.223223 0.16259643 0.15147662 0.08726959 0.07697267
0.103026725 0.19415471 0.12720938 -0.046674732 -0.1797638 -0.047108464 0.27169392 -0.029054856
00000000: bd9b d23d e2ed c83d dd10 9a3e 3125 563d
00000010: 0a41 d43d 0272 673e 6f17 4d3e 962a 373e
00000020: 6987 c0bd 04ba 203e 8bdf d0bd a801 003e
00000030: 9a17 33bc 64d4 d23d 32b8 4b3d 8b93 a33c
00000040: 92d1 203e 2c36 2d3e 311c a83e ca05 553e
00000050: 0ed0 303e df83 c33e ac46 8cbc 6191 9e3d
00000060: a098 5e3e bef8 d73d 9268 5c3e 79f1 9cbc
00000070: 928a e23d 194f cbbc 526d 9a3e 0835 833e
00000080: bd57 1bbe 1ee4 cd3d c442 a2bd ad21 0d3e
00000090: 2bbc cf3d a467 f43c 4d4c d03d c367 ac3d
000000a0: 0afe b6bc 3316 543e 0287 463e 2487 883d
000000b0: e1fb 52bd 2513 fe3d 283a 873d bf79 3d3d
000000c0: 17a5 ad3d fdc6 b93d 5d56 3cbd 4433 5b3e
000000d0: 48a3 57bd 326e dd3b 1810 293e 466e 43bd
000000e0: 1f37 663c 771f 4e3e 4cff 343e 2db0 953d
000000f0: b9dc ba3d de7c 8c3d e3b8 933d 5332 9d3e
00000100: c2dc 203e 0da6 a83d 8fad febd fd21 fa3d
00000110: a9bd 72be 648c c53c 7d51 643e 8af3 9cbc
00000120: 1417 b83d 47d8 443e d7af c83d 43bc de3d
00000130: b4b1 23be a81a 483e f1cd f73d 7ebf d8bd
00000140: d092 19be 0ec4 e1bd 140d e33c 3a8c 643e
00000150: e218 fcbd 2072 d03d cd91 82bd de73 843d
00000160: abfa 7e3d 04c5 e73c 985b b83e eb4b c4bd
00000170: 7f06 ebbd 561f d9bd 51f4 d13d eb4f 00be
00000180: 6054 9e3e a87e c43d 0981 8e3e 0123 e33c
00000190: 7d4d 493d 1079 323e 5556 353e 40d0 af3d
000001a0: e894 7a3c 5c69 8a3e c789 3a3e 2a0e 43bd
000001b0: cc17 b2bc ea86 f23d 5d67 543e 0a0a 753c
000001c0: b080 f837 af98 2a3e a52e 353e 9294 643e
000001d0: ae7f 263e b01c 1b3e 66ba b23d d9a3 9d3d
000001e0: adff d23d 7ed0 463e 2d43 023e 012e 3fbd
000001f0: 0014 38be cef4 40bd 771b 8b3e 7304 eebc

lstm.bias_hh_l1 f4 [128]
0.104314454 0.19140476 0.3127074 0.075492054 -0.009394155 -0.0013192464 0.14077587 0.14985347
-0.12938121 0.014000386 -0.039363094 -0.09578437 0.011824976 0.28831112 0.22088112 -0.018845355
0.07531604 0.13497698 0.26833954 0.28216216 -0.046083216 0.30845687 0.18400499 0.06259982
0.18399352 0.22955066 0.2218995 -0.01826728 -0.1399622 0.023132233 0.15469469 -0.04129794
0.031055622 -0.06730244 -0.07697041 0.20244418 0.010107714 0.13961928 0.04900587 0.17386052
0.0019157417 -0.08814784 0.20056656 0.10910957 -0.024749719 0.027697079 0.124095336 0.20672044
0.23622783 0.09392639 0.024725879 0.23046064 -0.10356509 -0.026355576 0.06878181 0.065239236
0.13225313 0.18595903 -0.032624543 0.18868883 0.22714892 0.0023051996 0.028949102 0.006368622
0.030600375 0.17326477 -0.18753426 0.10657919 -0.07895228 -0.17691508 0.09881876 -0.21998824
0.124045566 0.10289596 -0.033764403 -0.16650179 0.052160677 0.2164469 0.061469555 -0.1798813
0.017158356 -0.09578039 -0.1074225 0.26497826 -0.12143445 -0.008099224 -0.03794789 -0.10080445
0.25621203 0.122121684 0.11984063 -0.00018262397 0.00813121 0.07210088 0.126886 -0.06975263
0.3699137 0.1751336 0.071556054 0.025815243 0.00755969 0.06491337 0.17814477 0.22177936
0.08430528 -0.0433064 -0.01987854 -0.08359521 0.16563596 0.10702939 0.22750469 0.09101454
-0.06981627 0.14762174 0.06531607 0.07064247 -0.038778346 0.1251669 0.06845769 -0.07849837
0.0073448974 -0.021765957 0.32302713 0.20837547 0.12995367 0.120866336 0.00085673056 0.072530575
00000000: d1a2 d53d 9cff 433e 2f1b a03e 949b 9a3d
00000010: f1e9 19bc 90ea acba 8d27 103e 3073 193e
00000020: 827c 04be e061 653c 323b 21bd 992a c4bd
00000030: 8bbd 413c 849d 933e a92e 623e 9361 9abc
00000040: 4c3f 9a3d 6837 0a3e cd63 893e 8f77 903e
00000050: c1c1 3cbd 0fee 9d3e ce6b 3c3e 5634 803d
00000060: cc68 3c3e 540f 6b3e 9f39 633e 43a5 95bc
00000070: 4052 0fbe cf7f bd3c 4968 1e3e 0728 29bd
00000080: 5c68 fe3c ddd5 89bd aaa2 9dbd 874d 4f3e
00000090: d39a 253c 5bf8 0e3e 61ba 483d 7e08 323e
000000a0: a019 fb3a db86 b4bd 5261 4d3e d774 df3d
000000b0: ecbf cabc fce4 e23c b225 fe3d 86ae 533e
000000c0: b5e5 713e 7b5c c03d ed8d ca3c e0fd 6b3e
000000d0: ef19 d4bd a6e7 d7bc 7add 8c3d 269c 853d
000000e0: 5d6d 073e 0b6c 3e3e 50a1 05bd a537 413e
000000f0: ba99 683e d512 173b ab26 ed3c e0af d03b
00000100: a3ad fa3c 526c 313e fb08 40be 3146 da3d
00000110: bcb1 a1bd 3a29 35be 7d61 ca3d 9944 61be
00000120: 9a0b fe3d 1ebb d23d 8b4c 0abd 727f 2abe
00000130: 6fa6 553d 42a4 5d3e 80c7 7b3d ce32 38be
00000140: ae8f 8c3c 8228 c4bd 5400 dcbd 3bab 873e
00000150: a0b2 f8bd 9cb2 04bc 3f6f 1bbd 9072 cebd
00000160: 392e 833e ef1a fa3d 016f f53d c07e 3fb9
00000170: c438 053c a0a9 933d 67ee 013e 78da 8ebd
00000180: 5465 bd3e 3956 333e fb8b 923d 7d7a d33c
00000190: 47b7 f73b 4df1 843d 956b 363e 211a 633e
000001a0: 3fa8 ac3d 0d62 31bd 52d8 a2bc f733 abbd
000001b0: 799c 293e 3a32 db3d fdf6 683e d565 ba3d
000001c0: d5fb 8ebd 272a 173e 6fc4 853d 00ad 903d
000001d0: 0bd6 1ebd c02b 003e 8c33 8c3d c1c3 a0bd
000001e0: 77ad f03b 854e b2bc d063 a53e 6160 553e
000001f0: 9312 053e c588 f73d 3796 603a e98a 943d

fc.weight f4 [6, 32]
-0.16631317 0.13439272 0.15630269 -0.29881155 0.033441115 0.13605647 -0.01170604 -0.097914405
0.06092319 0.0023943568 -0.046143252 0.0033847343 0.19472753 0.08776959 -0.112813905 0.22211818
-0.08154963 0.17300756 -0.06962987 -0.21503396 0.15141006 0.019065922 0.12160443 0.22074132
-0.107856885 -0.3051206 0.08725394 0.16333078 0.1326937 -0.023032695 0.17543294 -0.067354
-0.16265592 -0.15653738 0.14697282 -0.084321015 0.3067885 -0.12169118 -0.20199883 -0.046230298
-0.15366788 0.067801125 0.24092937 -0.3114433 -0.061554234 -0.02332317 -0.13824674 -0.1699689
-0.08211229 -0.06841657 0.031371634 0.036034167 -0.15058507 0.0070274393 -0.2705014 -0.06783358
0.08932354 0.029573176 0.06456249 0.053199656 -0.017458607 0.09517751 0.0035708265 -0.20038238
0.06714216 -0.11084401 -0.14586799 0.044670098 -0.19574834 0.016005484 0.018773755 0.018923955
0.004311592 0.00967651 0.0078069577 0.027035518 -0.18181682 0.14890838 -0.1481935 -0.05206815
0.043733943 0.0041551446 0.055172026 0.1428935 -0.16812961 0.06975123 0.038017534 0.06452163
-0.013002193 -0.0040581133 0.008801958 -0.048143342 0.020718312 -0.19240235 -0.047673315 0.14520712
-0.23348768 -0.13526748 0.054172587 -0.025730798 -0.0297062 0.11069153 0.09522993 0.116996035
0.054613672 -0.12293689 -0.11861586 -0.03176924 -0.09400659 -0.0057948343 -0.17003396 -0.03976215
0.090809524 -0.008110983 -0.2708444 0.052914076 0.057461243 -0.17443518 0.041931372 0.055559058
-0.07725318 -0.009105204 0.0035233644 -0.048279516 -0.12806684 0.10927195 0.2409511 -0.18005669
0.2874565 0.20108165 -0.15078555 0.04528438 0.07505271 0.14566965 0.001183356 -0.06256176
-0.012355834 0.011548887 0.09805593 -0.19052434 0.29355064 0.12373952 0.08366214 -0.1019152
-0.15364629 -0.009522452 0.098585986 0.016051535 -0.096399516 0.3021989 -0.26720333 -0.058370285
0.059439704 0.1621619 0.16791153 -0.2083635 0.023708947 -0.039320417 0.16101503 -0.22618441
0.008842218 0.14011833 -0.3456056 -0.028457582 -0.27619794 -0.19938666 0.1044425 -0.26522207
0.09522432 0.2566272 0.03895563 -0.11564009 -0.15028426 0.16703719 0.08854957 -0.07449181
-0.04518524 0.046462517 -0.35922897 0.11394217 -0.116395 -0.038375463 0.07922146 -0.07756714
0.22251712 -0.08584605 0.2876816 -0.17884192 -0.059193783 -0.08189701 0.32564786 -0.12513731
00000000: 004e 2abe 3f9e 093e d00d 203e d4fd 98be
00000010: 8df9 083d 6352 0b3e b1ca 3fbc 5987 c8bd
00000020: 988a 793d a4ea 1c3b b500 3dbd 6bd2 5d3b
00000030: a766 473e 8bc0 b33d fa0a e7bd f372 633e
00000040: 7e03 a7bd e528 313e 1b9a 8ebd dd31 5cbe
00000050: 3d0b 1b3e 2330 9c3c be0b f93d 030a 623e
00000060: 12e4 dcbd c438 9cbe 32b2 b23d 2f40 273e
00000070: dbe0 073e 10af bcbc b1a4 333e e5f0 89bd
00000080: 468f 26be 564b 20be 0b80 163e 7fb0 acbd
00000090: 6213 9d3e 3a39 f9bd c8d8 4ebe fb5b 3dbd
000000a0: 1d5b 1dbe 51db 8a3d 30b6 763e 7f75 9fbe
000000b0: 4b20 7cbd 3c10 bfbc 8e90 0dbe 540c 2ebe
000000c0: 7d2a a8bd fd1d 8cbd 8b7f 003d 9098 133d
000000d0: f932 1abe 6f46 e63b 297f 8abe 55ec 8abd
000000e0: 43ef b63d 7243 f23c 5739 843d e2e7 593d
000000f0: 5a05 8fbc 6dec c23d 8704 6a3b 0a31 4dbe
00000100: d481 893d 2f02 e3bd 6b5e 15be fef7 363d
00000110: 4172 48be ef1d 833c 6bcb 993c 6906 9b3c
00000120: 4148 8d3b 398a 1e3c 82d1 ff3b 9779 dd3c
00000130: 302e 3abe 707b 183e 09c0 17be 6a45 55bd
00000140: 5d22 333d e127 883b 10fc 613d ac52 123e
00000150: 2b2a 2cbe bcd9 8e3d 46b8 1b3d eb23 843d
00000160: 2607 55bc ecf9 84bb 1636 103c f431 45bd
00000170: 73b9 a93c 1f05 45be 1845 43bd 2db1 143e
00000180: 6517 6fbe 8f83 0abe 13e4 5d3d 65c9 d2bc
00000190: 6b5a f3bc 3eb2 e23d e907 c33d 9e9b ef3d
000001a0: 96b2 5f3d 56c6 fbbd dfec f2bd 7620 02bd
000001b0: 8786 c0bd 98e2 bdbb 621d 2ebe a3dd 22bd
000001c0: 58fa b93d eee3 04bc 1eac 8abe 6ebc 583d
000001d0: 7b5c 6b3d 239f 32be 3bc0 2b3d e591 633d
000001e0: ea36 9ebd fe2d 15bc 3fe8 663b bec0 45bd
000001f0: f423 03be f9c9 df3d e3bb 763e c860 38be
00000200: 802d 933e 59e8 4d3e 8767 1abe 1d7c 393d
00000210: 3cb5 993d 6d2a 153e d71a 9b3a 6120 80bd
00000220: 2070 4abc 8b37 3d3c 8cd1 c83d d018 43be
00000230: 454c 963e 256b fd3d 0e57 ab3d ebb8 d0bd
00000240: 7455 1dbe 0f04 1cbc 73e7 c93d 827e 833c
00000250: 1c6d c5bd d0b9 9a3e e0ce 88be ae15 6fbd
00000260: 0c77 733d c50d 263e 00f1 2b3e 3e5d 55be
00000270: 4439 c23c 720e 21bd 20e1 243e e39c 67be
00000280: f3de 103c 2e7b 0f3e 38f3 b0be e01f e9bc
00000290: d169 8dbe 042c 4cbe f3e5 d53d 30cb 87be
000002a0: f804 c33d a464 833e f08f 1f3d b6d4 ecbd
000002b0: 1ee4 19be cc0b 2b3e 7a59 b53d 298f 98bd
000002c0: 2914 39bd 7b4f 3e3d dcec b7be 835a e93d
000002d0: 8060 eebd 972f 1dbd dc3e a23d 85db 9ebd
000002e0: 87db 633e 0ed0 afbd 014b 933e 5622 37be
000002f0: 2e75 72bd 9fb9 a7bd 51bb a63e ff23 00be

fc.bias f4 [6]
-0.22785184 0.062882155 0.0015051268 -0.01133344 0.05511489 0.153565
00000000: fe51 69be 5cc8 803d ad47 c53a e5af 39bc
00000010: 27c0 613d 2540 1d3e
