arm_pose_model.pth (torch, 231989 bytes, 10 tensors)

lstm.weight_ih_l0 f4 [256, 25]
00000000: e5cf 8fbe 1fe8 1dbc bf58 93be 65be 7d3e
00000010: 4d9a ff3e 06e7 18bd 9909 e3bd 9640 1abf
00000020: 2ff3 7c3e 8121 2b3d 1f0e 2dbe 9884 263e
00000030: e7b6 ae3f 6597 4cbe e7a0 f93e f002 cabe
00000040: 8b08 1dbf e9f4 7abd c834 07bf 8279 983e
00000050: 7b3a 11bf fd9b 1ebe 32e9 1b3f 327b ddbe
00000060: bddc b83c 6b2a 5dbd 38a8 56bf bdc1 fe3d
00000070: 8f73 453e dca6 31be 46ea 513f 1e54 94be
00000080: b7e9 73be 5252 223f 09e4 1ebf 2858 323e
00000090: 331a 803e e652 b33e f5ae 0b3f d7d3 6c3f
000000a0: dffa b7bc 2537 2cbf dfbc 613e 603e 05bd
000000b0: 0b24 ea3e 62db f8bf ba2a 773e 730e bbbf
000000c0: d673 633c 2e5d f8be deca 53bd ebfc c83e
000000d0: 90ab 7bbe d19b 9a3d 312e b43e 18fd 61be
000000e0: ab93 36bf 0561 91be 8ce6 d13e f372 553e
000000f0: 0427 23be bffd e2bc ac73 1ebf 98cc efbe
00000100: baa6 ad3e 1375 c4be e38d a0be f3af f13e
00000110: 03a5 ac3e be27 863f a922 7ebf c308 8bbe
00000120: b574 24be 5b19 dcbd f9eb ea3e dc27 243e
00000130: b4a5 513e d988 96be 3898 9abe 2c11 f23e
00000140: fc48 633d 7fcc 0fbe 0416 2bbe 328a dc3e
00000150: e260 d23d c678 2b3f c246 8dbe 086c b3bb
00000160: e9c5 813f 8959 2b3f 5dde c33e 8d69 003f
00000170: 2b33 0ebe b5a7 813e ec22 d7be 72ed 53bf
00000180: 2b13 d03e dc39 82be d04e 6fbd dda9 91bf
00000190: d69a 30be 60ae d3be 5bb5 41bc 8d7f 8b3f
000001a0: 087e 0dbf 0fb1 b33d bdbe 02bf fcc5 583e
000001b0: 1b01 79be 08e4 40be 1d35 98be e4b3 673f
000001c0: 868d 12be d36a 80be cb80 ea3d 8c30 023f
000001d0: d494 0ebc cee6 78bd acda 98bd c03c e13e
000001e0: 7643 f83e 0184 a63e 14db 35bf 4b46 153e
000001f0: 8691 8b3e ef6e d8bf 5a61 ffbe e75a 613f
00000200: 1765 f0be 3fe4 a6bc c889 29be 8632 a1be
00000210: 05dd cebc e2c0 2e3e d847 0a3e 4333 c5bd
00000220: a237 39be 5324 e8be 8071 af3e e1ab b63d
00000230: 338c 053e 0b4d 17bc dc15 0ebe 427c b23e
00000240: 7d28 b4bf ee69 1c3f 7f17 46bb 5c84 19bf
00000250: bb85 c63d 0531 80be 8f37 253f b8fa 033f
00000260: 4c9c 963e e92a 99bd 833e 16bf 9249 f3bd
00000270: 177f 223e c957 6bbf 75e9 babe 4d8e 9ebd
00000280: bcad 653f c9d0 f7bd 1bd3 563f 224d 25bf
00000290: 32e6 bfbd bb47 06be 493c 03bf 90a0 733e
000002a0: ea29 8dbe 66cf 29bf 26fb c4be 838f 08be
000002b0: 2a50 87be 720c b93e 85b4 d53e 983b 703e
000002c0: 5bcb 3a3d 2f88 e3be cfe5 07bf 8274 0f3f
000002d0: b95c aebe 250c 0ebf b5ff 6c3e 314c 0abf
000002e0: d1c7 873d 995d 083d 63f6 f2be 2261 2e3e
000002f0: 45a3 82be d03e 87bf e7bf a13e e673 43bf
00000300: 1654 833e 9d62 b73c 6cd1 babe ed06 8d3d
00000310: 883a 9c3e 5ec4 9a3e b055 b83e b53e 63be
00000320: 8204 353f 3dfa a23f cb71 433e 15c1 3bbe
00000330: 6c5c 893f 564c 023f 675d fabe b588 05bf
00000340: de24 653e 07fb dabe 9e7b cd3e faad 5fbe
00000350: 0cac b5be 3676 69bf ee3e 763f c1cd 3abe
00000360: 3cd8 2e3e fe31 ba3e d17b ed3d 10c9 db3e
00000370: 36ad 383f 4671 f2be dbc1 7e3e e0f3 213f
00000380: c6be b63e 34c2 053e 883c 9f3e 8fee 703e
00000390: 7fdd 41be 641a 6abe 78a6 6fbd 0d8e b63e
000003a0: 99c6 e3bb bbc9 d33e 9959 823d 9e77 a8bd
000003b0: c7d4 4bbe 49ac 54bf f053 1f3f 5466 303d
000003c0: e57d 19bf e7bf d93e db64 b1be 7a4c 21be
000003d0: 4a5a a3be b362 c7bf 7346 21bf 8940 ef3e
000003e0: a5a2 adbe bf1a 25be 365a 1ebe 9a2f 69bf
000003f0: f83b ef3f 4451 e33e 3a58 1b3e aa62 ae3e
-0.28088298 -0.0096378615 -0.28778645 0.24779661 0.4992241 -0.037329696 -0.11085815 -0.602548
0.24702142 0.04178 -0.16899918 0.16261518 1.3649567 -0.19979627 0.4875557 -0.39455366
-0.6134116 -0.06126872 -0.5281491 0.29780203 -0.5672986 -0.15489192 0.609027 -0.43258053
0.022566194 -0.05399553 -0.8385043 0.124392964 0.19282363 -0.17348808 0.819981 -0.28970426
-0.23819624 0.6340686 -0.62066704 0.17416441 0.25019988 0.35024184 0.5456384 0.9251074
-0.022458492 -0.67271644 0.22044705 -0.03253019 0.45730624 -1.944195 0.24137393 -1.4613785
0.013882598 -0.4850859 -0.05170714 0.3925546 -0.24577165 0.07549251 0.3519149 -0.22069204
-0.71319073 -0.28394333 0.40996206 0.20844631 -0.15932852 -0.027708886 -0.6189525 -0.4683578
0.33916265 -0.3837057 -0.3135825 0.4720455 0.33719644 1.0480878 -0.9927164 -0.27155122
-0.16060145 -0.10747024 0.45883158 0.1603083 0.20473367 -0.2940128 -0.3019426 0.47278726
0.055489525 -0.14042853 -0.16707617 0.43074185 0.10272385 0.6698116 -0.27593046 -0.005475525
1.0138522 0.66933495 0.38255587 0.5016106 -0.13886707 0.25323263 -0.4201883 -0.8278419
0.40639624 -0.25434768 -0.05842477 -1.1379963 -0.17246565 -0.41343975 -0.011823024 1.08983
-0.55270433 0.087740056 -0.51072294 0.21169275 -0.24316828 -0.18836987 -0.29728022 0.90508866
-0.143118 -0.250815 0.114503466 0.50855327 -0.008702476 -0.060766988 -0.07463583 0.4399166
0.4848897 0.32522586 -0.7103741 0.14577596 0.27259463 -1.6908854 -0.4987896 0.8802933
-0.46952125 -0.020372508 -0.16556466 -0.3148386 -0.025251875 0.17065766 0.13503969 -0.09628918
-0.18087628 -0.45340213 0.3426628 0.08919502 0.13041763 -0.009234677 -0.13875526 0.34860426
-1.4074856 0.61099136 -0.0030226407 -0.5996759 0.09693476 -0.250374 0.645379 0.5155444
0.2941612 -0.074788876 -0.58689135 -0.11879267 0.15868793 -0.91930825 -0.3650624 -0.077419855
0.8971822 -0.121003695 0.8391587 -0.6457082 -0.09370078 -0.131133 -0.5126386 0.23791718
-0.2757104 -0.6633209 -0.3847286 -0.13335995 -0.26428348 0.36142308 0.41739288 0.23460233
0.04560409 -0.44439837 -0.53085035 0.5603715 -0.34055117 -0.5548728 0.2314442 -0.5402251
0.06629909 0.033292387 -0.47453603 0.1702924 -0.2551519 -1.0566044 0.31591722 -0.7634872
0.2565009 0.02238589 -0.364879 0.068860866 0.30513406 0.3022794 0.36002874 -0.2219189
0.70710003 1.2732617 0.19086377 -0.18335374 1.073133 0.5089773 -0.48899385 -0.52161723
0.22377345 -0.42769644 0.40133375 -0.2184371 -0.35482824 -0.91196 0.96189773 -0.18242551
0.17074674 0.36366266 0.11595882 0.42926836 0.721393 -0.47352046 0.24878637 0.6326275
0.35692424 0.13062364 0.3110087 0.23528503 -0.1893215 -0.2286163 -0.058508366 0.3565525
-0.006951165 0.41364846 0.06364746 -0.0822594 -0.19905387 -0.83075386 0.62237453 0.043066338
-0.59957725 0.42529222 -0.3464726 -0.1575183 -0.31904823 -1.5576996 -0.6299812 0.46728924
-0.3391315 -0.16123484 -0.154641 -0.9108826 1.8690176 0.44397938 0.15170375 0.3405965

lstm.weight_hh_l0 f4 [256, 64]
00000000: 6b8b 85bf c792 c73e 4d8e fc3e ca4a 2b3e
00000010: 0cd4 0b3f 6052 0e3f c3fa 39be e006 043f
00000020: 42dc 07be fc06 6dbe e598 c63e a166 86bf
00000030: b9f2 bcbe f393 fb3f 095f d2bd d358 09bf
00000040: 34b0 e83e d2fc 23be 95fa e33c eee8 ba3e
00000050: dd57 85be f89c 203e 80ca 333f bcd9 54bd
00000060: c8a3 bb3e 3121 01bf 82a3 d53d 071a 213f
00000070: 4927 d93e 85e9 55bf 3909 8abf 1662 f2be
00000080: de44 c23f 2f9e 8e3e 953f 5bbf a4f9 36bf
00000090: a32a bf3e 0d9b 19be 9a84 873e 8e3d f2bd
000000a0: 91f8 46bf d1ad 96be 2fc3 293f 1c80 10bf
000000b0: 9167 31be 2f55 adbe 1c5c 9fbe f5ce a63e
000000c0: 347d a43c 568f a9bd 0d0e 2b3f 8e6d 19bf
000000d0: 4d48 02bf 8307 b43e e6e5 843e 5ba4 ed3d
000000e0: 4ad3 32bf b254 673e cf18 423f b37b 853f
000000f0: 8927 eb3e 2f2b 2e3e 47c0 76be c9ef 90be
00000100: 33b4 09bf 891e 60be 2f43 97be 8091 9c3f
00000110: 31ec bfbe 52a2 36bf f9ef 15bc 46bb bf3e
00000120: e52b 7cbe 1c45 cbbe 18cc 42bb ea63 453e
00000130: ee01 b93e 675f 02bf ef9d 14bf d1c3 6fbc
00000140: 12e9 13bf a33a 443d 8c13 b1be 60fb cabe
00000150: 90d8 a43e e6e6 90bd d175 a2be 3b38 083f
00000160: 013f 59be 24d4 733d 0d5a 20bf 38e7 11bf
00000170: 0d4a 853f 81c3 35be 9dd0 293f 0302 653f
00000180: 5616 08bf 2a86 103e ab3d eb3e a8e4 74bd
00000190: 192d 5cbd 163f a4be 3b15 c73e 5877 173f
000001a0: 4469 4f3f 1ffd 8ebe 1fe5 843d 0803 41bf
000001b0: a2c9 a0be 3701 803d 22aa b03e c58d be3e
000001c0: 77d7 14bf c4f3 2fbe b111 5d3f 1b26 9bbe
000001d0: 3123 f73e f453 243f 19c2 a83e 816e 4f3e
000001e0: dd9d a6be b2b7 14bd 8b29 73bf ae4b 0e3f
000001f0: 0deb cebe dd6d bf3e 8853 0c3d 5df6 67bd
00000200: 7b5b 8a3f 8f2c 313f 7dee ce3e 970f 833f
00000210: 9512 f4bf d7d9 f9bd 7f0d ee3c 0ccb dabe
00000220: f3e6 c33c 29b1 c33e 1985 223e 66d6 92bd
00000230: 698a 603f 1cb2 cdbe 3dd0 7a3e 8f6d abbe
00000240: 7656 81be c0f0 00bf 1db3 ff3e a3b0 82bd
00000250: e4d3 a83e 5d35 b93e 3c3b 40bf 5e60 dabe
00000260: 93a1 2a3f 0b75 763d b4cc 10bf eb12 60bf
00000270: 439b 17bf 8956 f0bc 7c8b 32bb 1328 c03e
00000280: de25 8b3f 7a3c 00bf 4cbb 213e 7182 a13e
00000290: c445 eb3e ab2c e23c 8465 51bf f2b7 033d
000002a0: 0619 263d 59c2 98be fe8b 763e bcfa b03e
000002b0: e5f0 12be 8e03 cb3e a9de 273f 49e3 be3e
000002c0: 5df6 9bbe 6424 15be f7c8 a8bf 538c 71bf
000002d0: b4ed 3a3f 50ca 3cbe fb7a 293e e516 c13e
000002e0: ba5b 613e 6d6d 27bf 719d f73e 782f 38be
000002f0: a03c b63e ec65 933e 2599 3b3f fdfc 70bf
00000300: 0bbf 4d3f 6b7e c8bd f6ee b2bd 09b5 8f3d
00000310: 194d 3e3e 30ad 06bf c979 713e 36f0 80bc
00000320: 6b1e 193e ad13 f4be e05e 813e 6136 95be
00000330: 3174 05bf c6db dabe a9dd b6be a727 203f
00000340: 8a40 bfbe 883c 8bbd efcb 8fbe 1109 433e
00000350: cfac 0dbf 9bcb b73d 355b 5ebf caab c03d
00000360: 31ae bb3d b2c8 953e 7997 a3be f65d 98be
00000370: 6df9 083f 7a46 553d eb92 ebbe bda7 95be
00000380: c7c9 2b3f 9344 6fbd 3623 89be d0f1 b9be
00000390: 04b2 31be 034c 513e e103 503e 7fba 943c
000003a0: 9404 5bbe 89d2 84bd 7b22 e53e d4b5 4a3d
000003b0: a22a 4c3f 1021 0cbe f6d6 2dbe 08cb 513e
000003c0: b261 993e 7510 96be 6736 9f3d 234a 32bd
000003d0: d4e3 72be cb93 da3e e9d5 dd3e a349 a43e
000003e0: 2bf1 8d3e cde1 91be 8e49 323f 6fd9 323f
000003f0: b666 90bf 9cc3 b0bc f0a7 13bf 1420 1cbe
-1.0433172 0.3897917 0.49327317 0.16727749 0.5462043 0.55594444 -0.18162064 0.5157299
-0.13267615 -0.23147196 0.38788524 -1.050007 -0.36903933 1.9654526 -0.10272033 -0.5365116
0.45446932 -0.16014412 0.027829448 0.36505836 -0.26043597 0.15684879 0.70230865 -0.05196546
0.36648393 -0.5044127 0.10431577 0.6293034 0.42412785 -0.8355945 -1.0784065 -0.4734046
1.5177267 0.2785506 -0.85643893 -0.7147467 0.37337217 -0.15000553 0.26468354 -0.11828147
-0.7772303 -0.29429486 0.6631345 -0.5644548 -0.17324664 -0.33854052 -0.3112496 0.3257977
0.020079233 -0.08279292 0.66818315 -0.5993279 -0.5089157 0.3516198 0.2595665 0.11603614
-0.6985365 0.22590902 0.75819105 1.0428375 0.459286 0.1700866 -0.24096785 -0.28307942
-0.5379059 -0.21886648 -0.29543445 1.2231903 -0.37484887 -0.7134143 -0.009151452 0.37447566
-0.2462612 -0.39701164 -0.00297237 0.19276395 0.36134285 -0.5092682 -0.5805349 -0.014634089
-0.5777751 0.047907483 -0.34585226 -0.3964491 0.32196474 -0.070752904 -0.31730512 0.532108
-0.2121544 0.059528485 -0.62637407 -0.56993437 1.0413224 -0.1775036 0.66333944 0.89456195
-0.5315908 0.1411368 0.45945486 -0.059788376 -0.053753946 -0.3207938 0.38883385 0.5916648
0.8102 -0.2792749 0.06489014 -0.7539525 -0.31403834 0.06250232 0.345048 0.37217537
-0.58141273 -0.17182833 0.8635512 -0.3030251 0.48269036 0.641906 0.32960585 0.20256998
-0.32542315 -0.036307998 -0.94985265 0.5558423 -0.40413705 0.37388507 0.03425935 -0.056631435
1.0809168 0.69208616 0.40416327 1.0239133 -1.9068171 -0.12199753 0.02905917 -0.42733037
0.023913836 0.382211 0.15871085 -0.071697995 0.877112 -0.4017495 0.24493499 -0.33482024
-0.25261277 -0.50367355 0.4994134 -0.06381347 0.3297416 0.36173525 -0.75090384 -0.42651647
0.6665279 0.060170215 -0.5656235 -0.87528867 -0.59221286 -0.029338138 -0.0027243784 0.37530574
1.0870931 -0.5009228 0.15794104 0.3154483 0.45951664 0.02760919 -0.81795526 0.032157846
0.040551208 -0.29835775 0.2407684 0.34566295 -0.14349706 0.3965115 0.6557413 0.3728278
-0.30461398 -0.14564663 -1.318633 -0.9435474 0.73018956 -0.18436551 0.1655082 0.3771278
0.22007647 -0.65401345 0.48362306 -0.17986858 0.35593128 0.28788698 0.73280555 -0.9413603
0.80369633 -0.09789737 -0.087369844 0.070169516 0.18584098 -0.52608013 0.23581614 -0.015739542
0.1495301 -0.4767126 0.25267696 -0.2914305 -0.5213042 -0.427458 -0.35715988 0.62560505
-0.37353927 -0.06798655 -0.28085276 0.19046427 -0.5534181 0.089743815 -0.8685792 0.09407766
0.09164084 0.2925468 -0.31951502 -0.29759187 0.53505594 0.052069165 -0.46010527 -0.29229537
0.6710476 -0.058415007 -0.26784676 -0.363173 -0.17353064 0.20439152 0.2031398 0.018155335
-0.21388465 -0.06485469 0.4475287 0.04948981 0.7975255 -0.13684487 -0.16976532 0.20487607
0.29957348 -0.2930943 0.07774048 -0.043527734 -0.23719722 0.42690882 0.43327263 0.3208743
0.2772306 -0.28492585 0.69643486 0.6986303 -1.1281345 -0.021577649 -0.5767813 -0.15246612

lstm.bias_ih_l0 f4 [256]
00000000: 7b85 bc3d ed6e 3d3e b74c 493f 277a 34bd
00000010: 1a76 ba3e 93e2 aa3e df36 2b3e bb7f dd3e
00000020: 5f9f 213e 257b 6b3e 91d0 ce3d d0ad 8b3e
00000030: dfb6 933e 4c17 4f3e c37e 95bd 9bb3 093e
00000040: bd63 323e 5797 a43e 9309 cd3d 2c8b 073f
00000050: 8ebb 3bbe fb5c cc3d e420 3a3e e7af b73d
00000060: 042b 003d d64c c33d a8e0 8a3c 494a 4d3e
00000070: f299 ce3e 0ad8 a63e 999a 893e 7f50 e0bd
00000080: 22f8 cb3e ee65 d23b 1d10 1e3e b54d 333e
00000090: df5f 413f 9d27 523e 7962 813e d542 d5bd
000000a0: c3fe 7f3e 32b9 b13e 6a78 943e 1e61 003f
000000b0: f979 fd3e 20a3 0d3f e972 953e 0311 0ebd
000000c0: 5856 a93e 5815 6e3e 9d11 b33e a771 3b3e
000000d0: 1f6f bd3e 9982 0c3f 0f83 e23e a339 1f3d
000000e0: af6a cc3d 8d7f 9e3e dbff 083f a2e4 223e
000000f0: 7dc6 b73e f37b 923e 4ee9 813e 007d 863d
00000100: 7f60 8ebe 03db 9bbe 89e2 02be d8cb 0cbf
00000110: c59b 16be 6ad5 7bbe f19f 9fbe be3e a1be
00000120: ca6d cabe 96d7 b3bd e623 143e de35 213c
00000130: 21c8 49be a475 92be 4454 37be 9501 ffbd
00000140: e1e1 dfbe 97fc a4be fea4 aebe 8352 e3be
00000150: 130e 1bbf 355e 69be dd0a 1abf ffd7 36be
00000160: 4a0e a1bd d52d 11bd 3a22 cfbd 9aea 8abe
00000170: 2e61 de3c 2af1 cbbe ac78 2ebe 6800 15bf
00000180: 625f 95be ad26 babe afdb 06be 5069 97be
00000190: a097 8bbe 3a7b 9cbe dce0 9ebc ca5c a3be
000001a0: 4af3 1abe 5ca1 aabd c124 cebe 7355 433e
000001b0: d69e 01be cc98 2ebe 8a4b 9fbe 0bc0 95be
000001c0: 39e4 cfbb 964a 48be ba3b bdbe 2a02 13bd
000001d0: 928c 98be 8115 013d 7bfa a9be 1b8b 9bbe
000001e0: f6f8 83be 3a7d 7ebe a209 bebe 4eaf 02bd
000001f0: 3eb3 6dbd 0365 df3b f8ea ddbe 5994 3abe
00000200: 1eac 623e aef3 31be f660 d53d b910 a5bc
00000210: ebd6 c0bc 5679 c43b bae5 24bd 873d ff3c
00000220: 1b7b 7ebe e92f 013e 1ca5 1d3d 4dc3 99bc
00000230: 601a 223d 81c5 f23d dc60 8abd ca9f 08be
00000240: d49b f4bc 3ef4 203e 16e5 d53b a5c7 8f3e
00000250: 140a f0bd 89cd 4d3e e02c 71be c9db 983d
00000260: c425 8b3e 387a 70be e097 72bc 7e0a 7c3d
00000270: f7ba 9c3e d45b dbbe 557c 10be c117 9a3d
00000280: 940b 76be 59f1 0ebe f44a f7bd 0e1a 44bd
00000290: bb62 8dbe 744a a8be c4c1 d03d 4eb0 80bd
000002a0: 466f 7dbe 045e 4dbe 39d8 b23d 26a2 0ebd
000002b0: a761 48bd bab3 0c3e 50cb c9bd b127 c03d
000002c0: 72f9 f7bd edbc 963e 2ed1 92be 928c 1a3e
000002d0: 880c 693d 241b 2c3e ef82 efbd 7c06 2bbe
000002e0: 760f f43d 6539 a73e f8d8 803d d5be 98bd
000002f0: 76ac 72be 3bda 0ebd 8bd9 e23d 8567 5f3d
00000300: 7390 f03e 9211 9c3e 00a3 773e a95d da3e
00000310: f231 063f 7725 ab3e c97d ba3e c33d dd3e
00000320: a54b a73e f8d0 8f3e 055a 753e 4263 8d3e
00000330: bbdf 963e d26a 113f 704c a73e ba49 973e
00000340: 1957 2f3b c939 033f 13da cc3e 2924 023f
00000350: d6c9 ed3e b236 173e d507 0b3f 8667 053f
00000360: 2456 1f3e 48c3 e13e eae1 493e 1f11 df3e
00000370: a8a2 153f b358 4f3e 2dad a73e 23d4 9d3e
00000380: 8b22 e43e 005f 5c3e bbf9 a43e 1112 503e
00000390: 6f90 733e 452f c73d f3c8 ed3e 0507 503e
000003a0: 8c67 b23e 5453 a73e c70f 843e 6fca ee3e
000003b0: 44ad 22be e203 a73e f9d5 3a3e 4abf ab3e
000003c0: 9e2b e83e 039c 1e3e fa00 433e 450b eb3d
000003d0: fc01 783e 3a30 963e df1f 293e e3e8 7c3e
000003e0: c589 a23e beec e83e d478 d13e f55e 623e
000003f0: 5d19 f03e 690a 6b3e a2ac 943e d849 923e
0.09205147 0.18499346 0.7863268 -0.044061806 0.3641823 0.33375987 0.1672015 0.43261513
0.15783451 0.22996195 0.10098375 0.27281046 0.28850457 0.20223731 -0.072995685 0.1344742
0.1742086 0.32146713 0.10011592 0.52946734 -0.18333265 0.09978672 0.1817661 0.089690976
0.031291023 0.0953614 0.016952828 0.20047869 0.40351826 0.325867 0.2687576 -0.109528534
0.39837748 0.0064208424 0.15435834 0.17510112 0.7553691 0.20522924 0.2527044 -0.10413138
0.24999528 0.34711605 0.2899812 0.5014819 0.4950712 0.55327034 0.29189232 -0.034684192
0.33073688 0.2325033 0.34974375 0.18305074 0.3699884 0.54886776 0.44240615 0.038873326
0.09981286 0.3095669 0.53515404 0.15907529 0.35893622 0.2861019 0.2537331 0.065668106
-0.27807996 -0.3044053 -0.12781729 -0.5499854 -0.14707859 -0.2459313 -0.31176713 -0.3149318
-0.39536887 -0.08781354 0.14466819 0.009839503 -0.1970525 -0.28605378 -0.17903239 -0.124514736
-0.4372702 -0.3222396 -0.34110254 -0.4439889 -0.6056835 -0.22789843 -0.60172826 -0.17855833
-0.078640535 -0.0354441 -0.1011395 -0.27132112 0.027145948 -0.3983243 -0.1703822 -0.58203745
-0.29174334 -0.36357632 -0.1316974 -0.29572535 -0.27264118 -0.30562764 -0.01939433 -0.3190673
-0.1513187 -0.08331558 -0.40262416 0.19075565 -0.12658247 -0.17050475 -0.3111232 -0.2924808
-0.006344345 -0.19559702 -0.3695963 -0.035890736 -0.29794747 0.03151465 -0.33198914 -0.30379567
-0.2577588 -0.24852458 -0.37116724 -0.031905465 -0.058032267 0.0068174615 -0.4334333 -0.18220653
0.2213597 -0.17378113 0.104188845 -0.020149576 -0.02353998 0.0059959097 -0.040258147 0.031157268
-0.24851649 0.12615933 0.03848754 -0.018769884 0.039575934 0.11854077 -0.06756756 -0.13342205
-0.02985946 0.15718171 0.0065275533 0.28082004 -0.11720672 0.20097937 -0.23552275 0.07463796
0.2717725 -0.23484123 -0.014806718 0.061533444 0.30611393 -0.42843497 -0.14109929 0.07524062
-0.24027854 -0.13959254 -0.12074843 -0.04787641 -0.27614388 -0.32869303 0.10193208 -0.062836275
-0.24749479 -0.20055395 0.087326474 -0.034822606 -0.048921254 0.13740435 -0.09853232 0.093825705
-0.12108125 0.29441014 -0.28675216 0.15092686 0.056896716 0.16807228 -0.116948955 -0.16701692
0.119170114 0.32660976 0.062913835 -0.07458273 -0.23698601 -0.03487609 0.11076649 0.054542083
0.46985206 0.30482155 0.24183273 0.42649582 0.5241996 0.3342702 0.3642409 0.43211183
0.326749 0.28089118 0.23960121 0.2761479 0.29467568 0.5680362 0.32675505 0.29548436
0.0026754795 0.5126005 0.40010127 0.50836426 0.4644305 0.14766958 0.54308826 0.5211109
0.15560204 0.440943 0.19715086 0.4356775 0.5845132 0.2024868 0.3274931 0.3082591
0.44557604 0.21520615 0.3222178 0.20319392 0.23785566 0.09725813 0.46442375 0.20315178
0.34844625 0.32680762 0.25793287 0.4663882 -0.15886408 0.3262015 0.18245687 0.3354438
0.45345777 0.15489201 0.19043341 0.11476759 0.24219507 0.2933367 0.16516064 0.24698214
0.31745735 0.4549312 0.40912497 0.22106536 0.4689435 0.2295319 0.29037958 0.28571963

lstm.bias_hh_l0 f4 [256]
00000000: d70d 0f3e fb0e 5c3e fb3f 113f 2a52 84be
00000010: a6eb ab3e d02b 203e 0dc7 6c3e c3c0 983e
00000020: 4e51 92bd ae6c b03d 6b0a 703e 30c8 913d
00000030: 963f 703e 499b e83d a872 01be d351 503e
00000040: c661 a33e 8471 d03d fecc 603e 4dd7 d53e
00000050: 3c59 70be 137c 0b3e 3497 6a3e d7d1 693e
00000060: 22d7 1abe b3d8 c33c 62fc ed3c 6b79 283e
00000070: 9072 a03e 587d b03e 3d4c 763e a59b 5ebc
00000080: 8685 eb3e 5c8c 62be 49cb 3b3e e039 f13d
00000090: 9156 273f 0f61 603e 4e63 353e 4dea 0cbd
000000a0: d546 043e 9602 283e 86e3 753e dfda 243f
000000b0: 1602 293f cfd3 e43e 6d7a b43e 7e28 09bd
000000c0: 7cd2 d13e b4db b43e 295f e53e 5d40 5d3e
000000d0: bf2d b93e 0ddd f63e 5fa7 d13e 3118 5ebd
000000e0: 3d74 e43d 8c72 303e a9f5 113f f657 d23d
000000f0: 670e 9d3e 5dd6 923e 8c90 113e 7741 6d3d
00000100: 2a34 71be bbc3 85be a3d6 3c3d b2fd 1cbf
00000110: 65cb 68be 4523 bdbe 2afd 53be a144 11be
00000120: e0f7 cdbe aa0d 58be bade 1e3d 539a 6bbe
00000130: 1e50 acbe 886a e1be 434e d2bd f906 fcbd
00000140: fd1b a7be 459c acbe de76 71be bd9d ddbe
00000150: f946 1abf 833c 31be 113c 19bf c7ac 15be
00000160: c631 aabd 8e10 e1bd 32ba f13d 0b92 e8be
00000170: 5e79 843e 3ec1 b3be 64af 83be f46d f7be
00000180: 5cfd 9dbe 09ca e3be 406d e73c 5e46 5bbe
00000190: 006e 83be 4116 38be 08fd 57be 4615 89be
000001a0: 3086 41be 3a6b 0dbd b165 a7be 1c88 863e
000001b0: b4ec 8cbe 328d 3ebe 92dc 6abe 8992 04bf
000001c0: 1e7a d13c ffcf 82be e48c 81be e5d5 343d
000001d0: 6a8a 89be 0036 a63d dd92 7fbe 51e4 c7be
000001e0: 4c19 83bd 5068 55be 00ad 17be c54d 2abe
000001f0: d856 e43d b40b a03d 1c49 bebe d45e cebd
00000200: b6a9 2d3e a609 2ebe 1af6 9a3d 71c0 b8bd
00000210: 7da8 babd c3f5 a63d 2a40 abbd b71c 8e3c
00000220: 4485 23be 9669 583d f442 803e 9338 c23c
00000230: ab11 d8bc cff6 8d3c 0a63 fc3d 648c 52be
00000240: f737 8b3d a091 313e acce 52bd a6e8 4a3e
00000250: 1527 32be 7a71 243d f232 74be 811a 4a3e
00000260: 5e7b 8f3e 7e8f 6cbe c542 a9bb cc51 aebd
00000270: 1d44 403e b6f7 cabe 91f7 2dbe b21a 093e
00000280: dd84 8cbe b7f4 1cbe e787 0bbe 3a29 60bd
00000290: 1382 4bbe 8100 67be 5ce4 5d3e 09ed e83d
000002a0: aca3 58be 0e8b 89be 6b45 60bb 57d4 38be
000002b0: 3b9e 243e 25c9 953d 3ed1 823d f9ad a03d
000002c0: 706f 4abe 4aa1 393e 1aab 9fbe 6e30 8f3e
000002d0: e72f 12be e45e 2e3e 1aa9 42be 3ae6 a4be
000002e0: 1614 40bc 1f4e 8a3e ce3d d83d 7692 933c
000002f0: 5a9e 68be 6b24 053e 5724 553e 4680 f8bd
00000300: 4267 1b3f bcda c13e d16e b23e ce98 013f
00000310: c3b4 e33e ade7 ba3e cf8c ad3e df6d fa3e
00000320: a9c8 e03e 14d1 953e fd71 ad3e e01a a83e
00000330: 64f0 5e3e 4491 e83e f652 5c3e c2a1 d43e
00000340: dbd5 af3d 522b c63e ebdf 8f3e 029d f73e
00000350: 465b b73e 0b22 a33d 86df 023f 74b7 c83e
00000360: 3692 523d de3a c43e 5e25 f63d 4462 0c3f
00000370: 003c 293f d389 553e 61cd ac3e df55 973e
00000380: bba4 f83e fbc6 c73e bcae ff3e 271f a53e
00000390: 2af1 9f3e 3ff0 6d3e 15a6 c03e 02b5 aa3d
000003a0: fe4f 863e 367a 673e c386 603e 749f 0d3f
000003b0: f9ab c6bd 4eb5 d53e 2fcf 6e3e 943c a03e
000003c0: 8041 d13e 7b76 8b3e dcd8 7c3e 9bfe 203e
000003d0: 7005 9c3e ae36 c43e a291 913d 3fa5 903e
000003e0: 032a 9f3e 4b86 1a3f 4ee4 b23e 34d3 a73e
000003f0: 5f03 073f 85fb 563e 20d0 9d3e 40f5 603e
0.13970123 0.2149009 0.5673825 -0.25843936 0.33578223 0.15641713 0.23122807 0.29834566
-0.07144414 0.08614479 0.23441474 0.07118261 0.23461756 0.11357743 -0.12641394 0.20343713
0.31910533 0.101779014 0.21953198 0.41765824 -0.2347154 0.1362155 0.22909242 0.22833954
-0.15121129 0.023907041 0.02905101 0.16452567 0.31337404 0.3447063 0.2405252 -0.013586913
0.46000308 -0.22123855 0.18339266 0.11778617 0.65366465 0.21912025 0.17713663 -0.034403134
0.12917645 0.16407236 0.24012575 0.6439647 0.6601881 0.44692847 0.35249653 -0.033485882
0.409809 0.3532387 0.44799164 0.21606584 0.36167714 0.48215523 0.40948007 -0.05422229
0.11154983 0.17231196 0.5701547 0.102706835 0.3067505 0.2867917 0.14215297 0.05792376
-0.23555055 -0.26125893 0.04610313 -0.6132461 -0.22733839 -0.3694097 -0.20702043 -0.14186336
-0.40228176 -0.21098962 0.038786627 -0.23008089 -0.33654875 -0.4402659 -0.102688335 -0.123060174
-0.3263854 -0.33712974 -0.235805 -0.43284407 -0.60264546 -0.1730824 -0.5985728 -0.1461669
-0.08310275 -0.10989486 0.11803092 -0.45423922 0.25873846 -0.3510837 -0.2571975 -0.48326075
-0.3085736 -0.44490078 0.028250337 -0.21413562 -0.2566986 -0.17977239 -0.21092618 -0.26774043
-0.18898845 -0.034526087 -0.32694772 0.26275718 -0.2752434 -0.18608549 -0.22935703 -0.51786095
0.025570925 -0.25549313 -0.25302804 0.0441493 -0.26863414 0.081157684 -0.24958368 -0.3904138
-0.06401309 -0.20840573 -0.14812088 -0.16631229 0.11149377 0.07814732 -0.37165153 -0.10076681
0.16959271 -0.16995868 0.075664714 -0.0902108 -0.09114168 0.08152344 -0.08361848 0.017347677
-0.15968806 0.05283507 0.2505108 0.023708617 -0.026375612 0.017329602 0.12323578 -0.20561367
0.06797784 0.17340708 -0.05146663 0.19815311 -0.17397721 0.040147282 -0.23847559 0.19736673
0.2802381 -0.23101613 -0.0051654303 -0.08511695 0.18775983 -0.39642113 -0.1698897 0.1338909
-0.27445117 -0.15327726 -0.13626061 -0.054726817 -0.19873838 -0.22558786 0.21669143 0.11373336
-0.21156186 -0.26863903 -0.0034221064 -0.18049751 0.16075985 0.07313756 0.06387566 0.07845683
-0.19769073 0.18127933 -0.31185228 0.27966636 -0.14276086 0.17028385 -0.1900982 -0.322069
-0.011723539 0.27012727 0.10558663 0.018014174 -0.22716656 0.13002174 0.20814644 -0.12133841
0.60704434 0.37862194 0.3485017 0.50623786 0.44473848 0.3650488 0.3389649 0.4891195
0.43903092 0.29261076 0.3387603 0.32833004 0.21771389 0.4542333 0.21516022 0.4152966
0.085857116 0.38704926 0.28100523 0.48361975 0.35811824 0.079654776 0.5112232 0.39202464
0.05140897 0.38326162 0.12018846 0.5483744 0.6610718 0.20853357 0.33750442 0.29557702
0.4856318 0.39018998 0.49938 0.3225033 0.3123868 0.23236178 0.3762671 0.08335306
0.26232904 0.22605214 0.21926408 0.5532143 -0.0970077 0.41739887 0.23321222 0.31296217
0.40870285 0.2723883 0.246921 0.15722124 0.30472898 0.38322967 0.071078554 0.28251073
0.3108674 0.60361165 0.34939808 0.32778323 0.5273952 0.20994385 0.3082285 0.21968555

lstm.weight_ih_l1 f4 [256, 64]
00000000: abf3 9ebe df25 44be 977a 90be 1a77 c43c
00000010: 42bb 4dbd 3ecb d73d d513 02bf c094 11bf
00000020: 5b05 67bf 52e1 d33e 2207 11bf f1c3 acbe
00000030: 10f7 b5bc 03f6 c13e de1a 17bf 8b26 a33e
00000040: dff8 473e 52c5 28be a1b8 f23e 2da7 193f
00000050: ed8f ee3e ff48 9ebe 4149 b93e 828f 193f
00000060: 127a c8bd 2204 243f f96c a93d 2725 e6bc
00000070: 84ad 74be 8d6d a7be 3eec 08be 9f24 3b3e
00000080: 68f3 e83e 8d4c 69be 9f5f 39bf c36d 14bf
00000090: 5651 d1be 35a3 57be 0cbb ab3d 21e7 8b3e
000000a0: 919b 063f 2729 b33d 6d47 753e d72c 86bd
000000b0: 53fc 1cbf 99d3 91be 8199 9d3e fb17 0c3f
000000c0: 10af 5dbe 46fe 04bf 98f8 1ebe 22d6 db3d
000000d0: 8446 3b3f c856 0a3e def9 3c3f ce1d eebe
000000e0: ac7c 9b3e 0806 833e 0331 fb3e 9b52 f03e
000000f0: 2025 1fbf 6fe6 37bf 14ad 723e b276 2cbd
00000100: 28a7 1d3d ed19 8fbe 422b 103f 49ab e53e
00000110: 72f9 20bf 6dcd 55be 8f7e 503d b8a0 b8be
00000120: 6e07 e3be 1f79 8b3e b1ce f23e f40f 413d
00000130: d6ab 85be f3dc d23b 06b6 89be 0e7e 053f
00000140: d599 183d 92c0 49bd 940a aebe 1d1a a33e
00000150: c1d3 2dbe 8a6b 62be 7539 2e3f e401 d9bd
00000160: 196d bdbe 1d96 6d3d 5d20 eb3d d371 963e
00000170: cd1c 15be b877 0ebd c860 d2bd 87c5 aebe
00000180: a562 29bf e679 9cbe b8e0 49be 29d5 d53e
00000190: b713 52bf 2ad0 92be 0fad 933e 9f07 cfbe
000001a0: 8636 64bd e024 033d b2fc 8abe 4eee b73e
000001b0: e693 923e 5c56 143f 2c1f 89be 1968 953e
000001c0: fc9b a33d 7f5a 10be 503d 35bf de6a 0a3f
000001d0: 4a34 913d be10 343e 4462 30be f715 313e
000001e0: 1be3 953e 3bf8 263d f3d1 61be cc20 b33e
000001f0: 2325 56bd 63e5 55be 9dc1 053f 32a2 8e3e
00000200: b29f 043b a0d1 3bbc 40fb 843d 85fe e7be
00000210: 4f58 5ebd 73e6 3dbd f181 9b3e b7fe 55be
00000220: e063 5d3e 7a6d 86bd faf7 3a3e 0ca0 123d
00000230: efd5 323e e776 95bf 6871 113e 9080 853e
00000240: 0ff8 7bbd 0465 49bf 0974 3abf 6dab 093f
00000250: 68f5 9f3e ae24 37bf 5127 233e d812 74bd
00000260: 32bf e6be c219 77be 8a53 e4bd 8deb 753e
00000270: 4f0c 36be c34c dcbe 0835 84be ea7d 76be
00000280: 5f20 7e3e e8f8 a53c eff0 423e 486c 84be
00000290: c604 6cbf be4e b23d d5de 96be 58c9 1dbf
000002a0: 945c 1a3e eb5e 133e 0281 0dbb f1d9 86be
000002b0: d906 303e b6df cd3d d79c 69bd 8211 253e
000002c0: 91a2 7d3e 6669 bdbe 27f2 f23d f63e 853e
000002d0: 5a35 e4be b476 35bf 1dcf 043f 0c65 dc3c
000002e0: f245 94be 295b 293f 4c84 a73e eb0d dabd
000002f0: b38b 2ebd 0d3e 893d 9bd2 a63e 3221 34be
00000300: 929e 0b3f e942 9bbd 1003 45bd 8687 9b3e
00000310: 4276 823c bc9e 3a3d c266 a53e ba16 fcbd
00000320: 4608 19bd 5e38 02bf a13f a33e 83b1 93be
00000330: d4b1 8c3e 49e3 30be c14b 53be 6954 663e
00000340: ea7c cb3c 79a9 6abe 3d1f c13d 900f 253d
00000350: 7852 3c3c 07bd b53e ec93 ab3d ed27 043e
00000360: 2b58 c23e fd6b 573e 4d6e fdbe 0ee6 44be
00000370: b36b 4c3e 2a7f 073f 1927 0e3c e3bb 12be
00000380: e094 19bf d0d6 b83e 9404 debe 1696 193f
00000390: 3224 2abf 0e40 bebe 2baa 233e 79b8 643e
000003a0: 7a37 303e 9527 143f 54f7 55be 670c e4be
000003b0: fa17 14bf 112f d13d 16e4 b2bd 2880 eabe
000003c0: a098 cbbe 0755 3cbe aa06 1f3d e004 01be
000003d0: 8e80 c13e f3bd 783e 6e56 19bf e5a0 663f
000003e0: f233 953e 18e5 a03e 5deb 153e 9e27 6ebe
000003f0: 2841 19bf 7fa3 76be 49d6 5b3e 305d 263e
-0.3104528 -0.19155072 -0.2821853 0.023982573 -0.05022741 0.10536812 -0.5081151 -0.568676
-0.90242547 0.41382843 -0.5665151 -0.3374324 -0.022212535 0.37883005 -0.5902537 0.31865343
0.1952853 -0.16481522 0.47406486 0.60020715 0.46594182 -0.30915067 0.361887 0.599846
-0.09788908 0.64068806 0.08272738 -0.028093887 -0.23894316 -0.32700768 -0.13371369 0.18275689
0.45498204 -0.22783108 -0.7241153 -0.57979983 -0.40882367 -0.21058352 0.08385286 0.27324775
0.52581125 0.087480836 0.23953028 -0.06551521 -0.61322516 -0.2848175 0.30781177 0.5472409
-0.21648812 -0.5195049 -0.15524518 0.10734202 0.73154473 0.13509667 0.7381877 -0.46507114
0.30368555 0.2559054 0.4906083 0.46938023 -0.62166023 -0.7183599 0.23698837 -0.042105384
0.03848949 -0.27949467 0.56316006 0.44857243 -0.62880623 -0.20879145 0.050901946 -0.3606012
-0.44341606 0.27240846 0.47423318 0.047134355 -0.26107663 0.0064350306 -0.26896685 0.5214547
0.03725608 -0.049255915 -0.33992445 0.3185586 -0.16975309 -0.22111335 0.6805642 -0.10596064
-0.36997297 0.058004487 0.11480782 0.29383716 -0.14561768 -0.03478214 -0.10272366 -0.34135076
-0.66166145 -0.3056175 -0.1971463 0.4176419 -0.8206133 -0.28674442 0.2884297 -0.40435502
-0.05571606 0.03201759 -0.27145916 0.35924 0.28628463 0.57944274 -0.26781595 0.29180983
0.07988736 -0.14097022 -0.7079668 0.54069316 0.070900515 0.17584512 -0.17224985 0.17293535
0.2927483 0.040764075 -0.22052746 0.3498596 -0.05228151 -0.20888285 0.52248555 0.2785812
0.0020236787 -0.011463553 0.06493235 -0.4531137 -0.054283436 -0.04636235 0.30372575 -0.20897947
0.2162013 -0.0656385 0.18258658 0.035797164 0.17464422 -1.1676911 0.14203417 0.26074648
-0.061515864 -0.7866976 -0.72833306 0.537772 0.31241918 -0.71540344 0.15932967 -0.059588283
-0.45067745 -0.2413092 -0.11148746 0.24015637 -0.17778133 -0.43027315 -0.2582171 -0.2407147
0.24817036 0.02026029 0.19037221 -0.25863862 -0.92194784 0.08706425 -0.29466882 -0.6163535
0.15074378 0.14391677 -0.0021591787 -0.2633815 0.17190112 0.10052435 -0.05703434 0.1611996
0.24769045 -0.36994475 0.11862593 0.26024598 -0.44571954 -0.7088425 0.5187853 0.026903652
-0.28959614 0.66154724 0.32718122 -0.10647186 -0.042613696 0.06701288 0.32582554 -0.17590788
0.54538834 -0.075811215 -0.048098624 0.30376834 0.01592553 0.045561537 0.3230496 -0.12309022
-0.037361406 -0.5086726 0.31884483 -0.28846368 0.27479422 -0.17274202 -0.20634367 0.22493137
0.024839837 -0.22916211 0.09429786 0.040298045 0.011494271 0.3549578 0.08377823 0.12905855
0.37957892 0.21037288 -0.49498215 -0.19228384 0.19962959 0.5292841 0.008676314 -0.14329486
-0.5999279 0.3610139 -0.43362868 0.5999464 -0.6646148 -0.37158245 0.15982883 0.22335996
0.17208663 0.578729 -0.2089513 -0.44540712 -0.57849085 0.10214055 -0.0873491 -0.458009
-0.3976488 -0.1839181 0.038824715 -0.12599516 0.37793392 0.2429121 -0.59897506 0.90089256
0.29141194 0.31424785 0.14640565 -0.232573 -0.59865046 -0.24085806 0.21468462 0.16246486

lstm.weight_hh_l1 f4 [256, 64]
00000000: 054d e6bd 1a2d c3be fd9c 313f 6c56 07bf
00000010: a0cb 3ebe 9102 f2be ef38 043e 9739 f6be
00000020: d887 b73d 47ef 903e 1fa6 d2be d858 dd3d
00000030: 9e6b 473f 0b56 0abf c231 d9be b673 973e
00000040: aa7e 5b3f 8bf6 24be 454d 82be 501f e33e
00000050: 8351 283e ee7e 5a3e be2b 663c 5df5 a1bc
00000060: 0f84 073f 9a7b b93d 1234 e63e 5688 29bf
00000070: 3c4a 36bd df58 553e 2bb2 c33e 7add adbd
00000080: e572 093f b5ef a4be 1ff0 b13e b1f3 e4be
00000090: 5c7e 29bf 0814 8d3e ff7a ad3e 1a23 863e
000000a0: 0c6b 1abe 146c e9be 00db fd3c ba65 8e3c
000000b0: f667 133f 08b7 a83e 4b2f 44bf 8f0c 34be
000000c0: 9f72 e13e bdb1 30bf b81e a63d d80f e53e
000000d0: 22be 633f 9fa8 b93e cff6 3ebe cb73 ba3e
000000e0: 685f 793e ca1f 0abf d9ba a0be edb1 143e
000000f0: b1ae 2ebf 73c0 e8bd 78d0 dcbd 7925 b5be
00000100: 2b61 d2be 82ee 8c3d 2290 143e eb49 bebe
00000110: 7dfe 99be 8e0b 4a3e 91db 5cbf 1c2c 2f3f
00000120: 6511 363f 97a8 4f3e b0ef 133e 4b87 a2be
00000130: ab94 83be 815f 10be 63c2 15be 02e7 373f
00000140: bb1a 20bf 5dd5 d33e cd9e 47be be97 06bf
00000150: ff21 a7ba 863f 3e3e efc7 9cbe 165e 2bbe
00000160: 0906 2c3e a2e7 073f 7262 333f 3374 963e
00000170: 3af9 7d3e 3dec 9ebd ae70 50bd 74b6 93be
00000180: 9bf6 033f 6f50 88bf 8b3e 133f 300e 9cbe
00000190: c545 153f 3ac1 f8bd f199 e5be 13ca 433c
000001a0: d48a 27bf 0906 b1bd 9cd4 5dbe 644e c8be
000001b0: b579 4cbe 9d14 acbf 6773 d8be 27eb 563d
000001c0: c488 463c 6173 1e3d 8a84 e33e 8697 513f
000001d0: 510b 113f 0675 143e cbe7 75be db94 0cbf
000001e0: d86c 073e 25a1 edbd 3fa4 9d3d 582b 633e
000001f0: fca1 c4be 0001 27bd 1434 98bc bd9e 1d3e
00000200: 13c4 2fbe 1f15 083e f7e0 21be e178 c0be
00000210: 1406 98bd 193c 0b3f 0077 273e bd0c 8d3e
00000220: 7212 62be 5c95 8cbf eb5e 34be 8ede a33e
00000230: 0c24 b23e 20c6 86be 71e7 acbe 95c7 2dbe
00000240: c547 193d 077f 38bf 56b7 413d 8a86 93bf
00000250: 0f95 c93d 96c3 293e 364b f7be 4509 80be
00000260: f75c 053f e9e0 113f aba3 ab3e 6256 22bf
00000270: 97e6 6b3f 7789 61be 38de 2bbf 7e34 60be
00000280: 1956 0b3f 12eb 90bd 62bf bfbe e6b1 eebe
00000290: 0357 8a3e 873a 93be 03f4 36bf b31e e53b
000002a0: 92c4 ed3d 2d00 d43e 2f91 47bf 91d7 80be
000002b0: d543 6dbf 07e3 aabf d02f e53d 1dcb 773e
000002c0: 1799 433e 1c4f 81be 0ba0 333f 1454 513f
000002d0: 4bd6 b0be c0cc 29bd b29b 113f 2723 7dbf
000002e0: 5339 8fbe 0d0d 64bd 958e 5bbd 3df3 033d
000002f0: 7340 383f 40cf 28bd c2cd 00be ccbb 9abe
00000300: 0cc3 aa3d f911 25bf 994e afbc a584 993e
00000310: 9f66 9c3e 4b1c 22bd 0364 9abd 138c 9cbe
00000320: 435d 653f fd6e 90be 605f e93d 9e72 1bbf
00000330: 560b 3cbf 79f0 ea3e e3e2 3bbe 5eeb 113f
00000340: de5d 8a3e 078f e83e aa23 c9bc 09f3 513e
00000350: fa15 693f cadf 08bf d870 163e f3d5 cb3e
00000360: 1fb5 8d3f c323 4dbf 5950 06be 1855 6dbf
00000370: efc9 80be 1c41 443d 727a 3c3e e594 ef3d
00000380: a256 a4bd cc06 af3e f8fb 253f d5ed 5d3e
00000390: a3a6 a73e a523 cf3e e233 8dbf f88d f8bc
000003a0: 1eda c93d 636e 76bf a2f9 b3be d8ed a03d
000003b0: 30c4 ea3e d66e 36be 4863 a0be 8dd0 05bf
000003c0: 61af bc3d e68b b33e 0ebb f33e 3518 07bd
000003d0: 43a2 393e c464 6dbe 1115 f43c e55c 84bf
000003e0: fabb 21be 92ce 4f3e 56da ad3e 57e3 b1bd
000003f0: 96ab 55be d936 c8be 0aa6 21be 7ffb d3be
-0.11245159 -0.38120347 0.6938017 -0.52866244 -0.18632364 -0.47267583 0.12912343 -0.48090813
0.08961457 0.28307554 -0.41142365 0.10807961 0.77898586 -0.5403754 -0.42420775 0.29580468
0.8574015 -0.16109674 -0.25449577 0.44359827 0.16437344 0.21337482 0.014048515 -0.019770319
0.5293588 0.09056778 0.44961601 -0.6622366 -0.04450439 0.20834683 0.3822187 -0.08489509
0.5369094 -0.32214132 0.3475351 -0.44717172 -0.66208434 0.27554345 0.338829 0.26198655
-0.15079898 -0.4559027 0.030988216 0.017382491 0.57580507 0.32952142 -0.76634663 -0.17582916
0.4403276 -0.6902121 0.08111328 0.4473865 0.88961995 0.3626146 -0.18648838 0.36416468
0.24352801 -0.53954756 -0.31392553 0.14520998 -0.6823531 -0.11364832 -0.1078195 -0.35380152
-0.41089758 0.06881429 0.14508107 -0.3716577 -0.30076972 0.1973097 -0.8627253 0.6842668
0.7112029 0.20279156 0.14446902 -0.31743845 -0.25699362 -0.14098932 -0.14624934 0.71836865
-0.6254079 0.4137372 -0.19494171 -0.5257529 -0.001275122 0.1857892 -0.30621287 -0.1673511
0.16799177 0.5308782 0.7007209 0.29385528 0.24802104 -0.077599026 -0.05088871 -0.28850138
0.51548165 -1.0649546 0.5751731 -0.30479574 0.58309585 -0.1214623 -0.4484401 0.011950034
-0.6544621 -0.08643729 -0.21663135 -0.39122307 -0.19968303 -1.3443791 -0.42275545 0.052470353
0.012117568 0.038684253 0.44437057 0.8187183 0.5665789 0.14497766 -0.24014203 -0.54914635
0.13225114 -0.116030015 0.07697343 0.22184503 -0.38404834 -0.040772438 -0.01857952 0.15392585
-0.1716464 0.13289307 -0.15808474 -0.37592223 -0.07423034 0.54388577 0.16353989 0.2754878
-0.22077349 -1.0983081 -0.17614333 0.32005733 0.34793127 -0.26323032 -0.33770326 -0.16970666
0.03742196 -0.7206883 0.047293983 -1.1525433 0.09842884 0.16578516 -0.4829957 -0.25007072
0.5209498 0.5698381 0.33523306 -0.6341306 0.9214873 -0.22025095 -0.67135954 -0.21895024
0.5442825 -0.07076086 -0.374507 -0.466201 0.2701951 -0.2875559 -0.7146608 0.006992185
0.116097584 0.41406384 -0.7795591 -0.25164464 -0.9268163 -1.3350533 0.1119076 0.24198575
0.19101368 -0.25255668 0.7016608 0.8176892 -0.34538493 -0.04145503 0.568782 -0.98881763
-0.27973422 -0.05567651 -0.053602774 0.032214392 0.7197334 -0.041213274 -0.1257849 -0.30221403
0.083379835 -0.6448055 -0.021399783 0.29984012 0.30547044 -0.039577764 -0.07538607 -0.30575618
0.8959543 -0.28209677 0.113951445 -0.60721767 -0.734548 0.4588659 -0.18348269 0.56999767
0.2702474 0.4542162 -0.024553139 0.20502867 0.9104916 -0.53466475 0.14691484 0.39811668
1.1070899 -0.80132693 -0.13116588 -0.9270797 -0.25154063 0.047913656 0.18406084 0.11698321
-0.080243364 0.34184873 0.648376 0.21672757 0.3274432 0.40456882 -1.1031458 -0.030341133
0.09856056 -0.96262187 -0.35151392 0.07857865 0.45852804 -0.17815718 -0.31325746 -0.5227135
0.09213138 0.35067672 0.4760365 -0.03298207 0.18128304 -0.2318297 0.029795201 -1.0340849
-0.15794364 0.20293644 0.3395564 -0.0868594 -0.20866236 -0.39104345 -0.15785995 -0.41402814

lstm.bias_ih_l1 f4 [256]
00000000: 386d 213d 7dd5 fabe 0242 91be 9a82 aabe
00000010: 3207 44bd f953 c6bc 0d00 2cbe 9e8e 0dbe
00000020: d6de 60be 5b98 81be e379 9439 09a4 8abe
00000030: 7529 e0bc cf16 a0be 682d 31be 3211 acbe
00000040: a70a 84be e323 d7bd 6a64 8b3e 6d38 e9be
00000050: ee4e 343c 4c7d a43d 4a12 5f3e 5827 7c3e
00000060: d764 d8bd 5931 d9be e1f1 723c dbfa abbe
00000070: da51 afbc 3626 0fbd 5223 433e 4e24 6abe
00000080: ffa7 8dbe bc2f b03c 2782 f33c cd52 08be
00000090: 4e45 fa3c 2d51 1d3e 15a3 88be 5c0d db3d
000000a0: 4cfa 57be ea92 4abe 8d4f 8d3d b559 72be
000000b0: e3b4 5ebe 1725 babe 97f1 8bbe 3395 95be
000000c0: b03b a4bd ddc1 82be 07a5 dfbe 1f11 87be
000000d0: 7516 353e 53e5 86bd c950 3bbd 99ff 01be
000000e0: 500d 45be 1364 39be ce9e 9d3d f204 ab3e
000000f0: 9d5a 8dbe a9c5 2fbc afe0 82bd ba30 44be
00000100: 6527 483e f70e e83e 2163 4d3e f394 a13e
00000110: 3cb1 ec3e 8965 a43e 4c99 863e a03b f43e
00000120: d250 833e 113c 883e c874 863d 7823 e5bd
00000130: ce48 34bc 52b3 a73e e3fb 243e 8175 b03d
00000140: 1f7f 9f3e 3ba5 573e 58f5 b3bd 6c9d 753e
00000150: a68a 933d 6aba 623e b682 9bbd be9a b93e
00000160: 3713 d03e e845 093e 5f11 bc3c 2299 cb3d
00000170: 203c a33e 88e1 7b3e 4b16 e33e ee21 ad3e
00000180: a500 ea3d ab26 cd3d d5c7 603d dc09 323e
00000190: 88fe 4e3d 4846 cb3e 6244 81bd 2eca 863e
000001a0: ebb2 573e 2a8c 193e 78c8 483d ee6b 173e
000001b0: 39b4 973e 1445 983e 0d9e 81be 9f6c c63e
000001c0: 4377 833e 38bb 263e 2bdb 9b3e 334f b73e
000001d0: c820 cc3e 99b5 983e bc38 983e 0072 c4bd
000001e0: dae5 7c3e 296c 863e eef5 0f3f 52b6 70be
000001f0: 9a30 dc3e 0c67 db3e 5cd6 da3e 1cb8 8bb8
00000200: b7a9 9f3d 509e a0bd 818e 043d 4e88 e73d
00000210: 8db6 43be 5124 0f3e 62aa 9b3c a7f1 86bc
00000220: 4d28 1ebe 4d4a 3abe 56fe 22be 5d53 063e
00000230: ed35 d8bc de67 263b 72e8 a93d 9eed 91bd
00000240: 58d1 46bb 6543 aa3e 63b4 cb3c d80d cfbb
00000250: 3d93 ebbc b5b1 18bd 67a0 93bd cf76 0cbe
00000260: b51b 9aba f48f a43d b227 073e 5ab4 273e
00000270: ef75 9c3d c625 2cbd d7d9 36be 9da1 5bbe
00000280: 6875 cbbd f2c3 a83d 7244 b5bd 49b3 d53d
00000290: e60e 723d 2c4f 4c3e c44a 73bd 1f97 30be
000002a0: e7da bdbd 7008 333e eb84 913d f0ab 773e
000002b0: 5789 76bc d301 613d c13d 53be b585 9d3e
000002c0: fd11 5d3d 5184 63bd 229b 00be fb2c 703c
000002d0: c31d e2bc 7c9c 463d 8b40 71be 2a7f 10be
000002e0: c27f 2abd 8ce8 4f3d 4957 dd3d e854 79bd
000002f0: 1959 79be 2833 e53d d194 0b3e 0ee6 323e
00000300: 65ee f63e 1645 213f a01d c23e be4b 573e
00000310: 356c ba3e 3614 2c3e ee8e 813e 7a87 af3e
00000320: 9048 fc3d 8657 7e3d 7085 1c3e 4dbd 5b3e
00000330: b58e 713e e129 803e 9881 d03e 05ce 853e
00000340: 24df a03e 0da0 913e 30dc ba3e 57b5 8f3e
00000350: 86f9 813e 67b5 a33e 7378 cd3e 7a6a 053f
00000360: 7f95 993e efff 283f 0a09 673e 093d e33e
00000370: b32c 063f 60c8 1a3e d61e 023f 21d5 99bd
00000380: be16 29bd b0bf be3e d350 093f 4124 143f
00000390: 6ce9 ab3e afb7 273e 8fda 873e 15f2 f63e
000003a0: 9821 163e a27d ad3e 951c 063e 9778 a43e
000003b0: 1d10 8f3e d0d7 33be 0d89 083f 0334 a5bd
000003c0: 2efc dc3e 0865 ef3e c252 933e 9e46 7b3e
000003d0: 61d7 9a3e 82d1 163f 3e82 263e ee05 1a3d
000003e0: 9ba8 a33e 59f2 a53e ad60 d93e a7b9 d93e
000003f0: d06c 903e e4b6 a23e 638d 963e 6d61 dc3e
0.0394108 -0.48991004 -0.28370672 -0.33302766 -0.047858424 -0.024209963 -0.16796894 -0.13823935
-0.21960005 -0.2531155 0.00028319572 -0.27078274 -0.027363518 -0.31267402 -0.17302477 -0.3360687
-0.25789377 -0.10504892 0.27225047 -0.45550862 0.011005146 0.08031711 0.2178432 0.24624383
-0.10566109 -0.42420462 0.014828176 -0.33589825 -0.021401335 -0.03494855 0.19056442 -0.22865412
-0.27667233 0.021507137 0.029725147 -0.13312836 0.030550625 0.15362997 -0.26686922 0.106959075
-0.21091574 -0.19782606 0.06899939 -0.23667033 -0.2174869 -0.36356422 -0.27332756 -0.29215392
-0.08019197 -0.2553853 -0.43680593 -0.2638025 0.17684348 -0.06586709 -0.04573134 -0.12695159
-0.1924336 -0.18104582 0.07696305 0.3340221 -0.27608195 -0.010728278 -0.06390511 -0.19159213
0.19546278 0.45323917 0.20057346 0.31558952 0.4622897 0.32108715 0.2628883 0.4770174
0.25647599 0.26608327 0.06565243 -0.11188406 -0.011003686 0.32753998 0.16111712 0.08616162
0.31151673 0.21059124 -0.0878703 0.23985833 0.072041795 0.22141424 -0.075932905 0.3625087
0.4063966 0.13405573 0.022957502 0.09941317 0.3188181 0.24597752 0.44352946 0.3381495
0.11425904 0.10017141 0.054878075 0.17386574 0.05053571 0.39702058 -0.06311871 0.26326126
0.21064346 0.14994875 0.049019307 0.14787266 0.29629686 0.29740202 -0.25315896 0.38754746
0.25676927 0.16282356 0.3044065 0.35802612 0.3986876 0.29826048 0.29730785 -0.09592056
0.24697056 0.26254395 0.56234634 -0.2350705 0.4300583 0.42852056 0.42741668 -6.6623295e-05
0.077960424 -0.07842696 0.032362465 0.11305295 -0.19112606 0.13978697 0.019002143 -0.01647265
-0.15445061 -0.18192406 -0.15917334 0.13117738 -0.026392901 0.00253915 0.082962885 -0.071254
-0.003033718 0.33254543 0.024866289 -0.006318789 -0.028756732 -0.03727885 -0.07208329 -0.13717197
-0.0011757525 0.080352694 0.13198736 0.16377392 0.076396815 -0.04202821 -0.17856537 -0.2144837
-0.09934503 0.082404986 -0.088509455 0.104345866 0.05909624 0.19952077 -0.059397474 -0.17245148
-0.09270268 0.17483687 0.0710543 0.24186683 -0.015047393 0.05493338 -0.20629026 0.30766073
0.053972233 -0.05554611 -0.12559178 0.014659162 -0.027602082 0.04848908 -0.23559777 -0.14111009
-0.041625746 0.050758883 0.10807664 -0.06087199 -0.24350394 0.11191398 0.13630988 0.17470571
0.48228756 0.6299604 0.37913227 0.21024987 0.3641068 0.16804585 0.2530436 0.34283048
0.12318528 0.062095188 0.15285277 0.21458931 0.23589595 0.2503195 0.40723872 0.26133743
0.31420243 0.28442422 0.36496115 0.2806804 0.25385684 0.31974337 0.40130958 0.52115595
0.2999687 0.66015524 0.22562042 0.44382504 0.52411956 0.151155 0.508283 -0.07511354
-0.041281454 0.3725562 0.5363895 0.5786782 0.33576524 0.16378663 0.26533934 0.4823157
0.14661252 0.33884913 0.1309684 0.32123253 0.2794198 -0.17562795 0.5333412 -0.08066561
0.43161148 0.46756768 0.28774077 0.24538657 0.30242446 0.58913434 0.16260621 0.03760331
0.31964573 0.3241146 0.4245657 0.42524454 0.28208017 0.3178016 0.29404745 0.4304308

lstm.bias_hh_l1 f4 [256]
00000000: e7de 0d3e c0e6 1bbf 1c53 88be 9af3 cdbe
00000010: c315 dcbd 2511 f63d 3d51 a9bd e8e0 16bd
00000020: 2299 64bd 1605 a4be d8cb d2bc 3d62 f7bd
00000030: 16f0 22be 4838 71be 8244 fbbd dcbd ccbe
00000040: dd3d 3abe d015 54be d6af 973e 551b e4be
00000050: a548 0e3d f069 293e 8bd8 ed3d f007 9a3e
00000060: e161 16be 06f2 6fbe 94fb 1e3e 9f0e bdbe
00000070: 02e8 14bc 0026 10bd e8c4 553e b267 8fbe
00000080: 0105 47be 04e7 693d 886c d4bd 0612 22bd
00000090: e94a 403e 81c9 ef3c e27b 2abe e3d1 cd3c
000000a0: a2b8 44be 38b6 cbbd e3f3 943d 8d89 27be
000000b0: 9a57 49bd 0428 84be d32a 8abe 8f6e 9cbe
000000c0: d04b 41bd bbe3 a2be 7bcd c0be 5ded 16be
000000d0: cd4d 5a3e ba16 b63c 5bfa 9d3d 9c9e 93be
000000e0: 1a9d adbd 3ace 7cbe cdf6 36bd 9c2c be3e
000000f0: a589 87be 9c3a cebd 007a 1c3b 9e57 a8bd
00000100: 6347 193e 9189 aa3e 1bd6 503e dc99 013e
00000110: 8cd8 b23e d7ff ba3e 4603 313e 12fa c83e
00000120: fff0 223e 91d8 b03e 3756 683e 7e16 93bd
00000130: 91e5 0c3b f87b 923e 2415 e03d 513f 9e3d
00000140: 35ab 623e 540c 8a3e 0fc5 29bd f18e a93e
00000150: 6839 493e 1899 613e 6533 c63c c489 9c3e
00000160: 57f3 dc3e 46fb 1a3e b355 073e 8422 d73d
00000170: 0411 9b3e aeb4 113e 2de4 8e3e 140f d83e
00000180: 81b3 723e b3fd 89bd f8ab ae3c 9d39 fe3d
00000190: 77f7 3b3e cc3c ee3e d705 d5bd 9161 853e
000001a0: da27 883d f278 383e 8cd0 9c3d 6b8b 9d3d
000001b0: b6e8 073e 1c36 ce3e 18f9 34be 85a1 c83e
000001c0: ecf8 7b3e db37 903e 235d ae3e edfb ab3e
000001d0: ee16 eb3e c913 ac3e ff77 3f3e be6c 50bc
000001e0: e596 af3e 404f 633e dc11 be3e 2c2b 62be
000001f0: 0a2f bb3e 886f dc3e 5a09 a13e be0a ec3d
00000200: 43e6 9abd 87f8 833d 32e3 b93c 64b4 323e
00000210: e8d0 dabd 85f5 193e 1f05 903d 1b25 6b3d
00000220: 3d3d 55bc 0f93 cabd fc4b 36be 0079 123c
00000230: 34e7 2cbe feb2 7f3b e240 e33d 98ba a0bd
00000240: 0c37 023c c71c 833e bb4a 3f3e 66ae 4d3b
00000250: d9dc 9dbb 5015 dcbc 1abb 523d d05c 99bb
00000260: 377c 87bd 0c6b 2d3e 965d 3b3e 6045 f93d
00000270: 113b 043e 5143 85be 0c4e bfbd e659 b2bd
00000280: 1447 bc3c ca6c f13d f219 dfbd ebdc 46bd
00000290: 9e8e bc3c 7ce7 103e 54be 083d 1d2a 5dbe
000002a0: 2372 a53d cfc8 703c 87b6 a3bd 0c72 3b3e
000002b0: ba50 9cbd bfb0 f13c f35e 51be 2591 433e
000002c0: 9c4c 94bc 68dd 053e 46ca 54bd aa4b a7bd
000002d0: a9ce 5bbd 7e81 003e 87ec 42bd 7858 dfbb
000002e0: 6bc4 05be 44cc b43c 81ec 903e 0926 09be
000002f0: 71d3 4ebe eded 7d3e bd88 583e 9cf4 f13d
00000300: a201 053f ca41 373f f23a d33e b78c a13e
00000310: 4330 8f3e 3565 003e c01b ac3e 0a3a bb3e
00000320: 3eb2 113e 4f71 b73d 6783 ec3d ff4c 593e
00000330: d309 873e e103 8f3e dc6b 6b3e 3a91 b23d
00000340: 225f a33e a301 f83e 84a2 c53e 479b a63e
00000350: 5cde 073e 653b 8d3e 69db e93e e33f d33e
00000360: fdc0 a83e ba27 0a3f d999 923e 9d86 c63e
00000370: 8160 003f d5b2 b2bd 0d4a c43e a724 133e
00000380: 94f7 123e 4503 703e 1326 0e3f b8ec c63e
00000390: 9673 e23e b554 293e 3309 ad3e 21d8 f33e
000003a0: d34b a03e 9870 eb3e f30b a93e 99a0 b13e
000003b0: 79cd bd3e 75ff 57bc fc8c db3e edb6 ffbc
000003c0: 7427 ac3e d6a4 8b3e a485 8d3e c6ab 483e
000003d0: 40c0 5d3e 5a1f 2f3f 3309 0c3e 5373 c0bd
000003e0: 1527 e13e ddb3 843e 2559 cf3e 25a5 083f
000003f0: fab6 9f3e 1fe8 fb3e c5f0 b83e 5dad bc3e
0.13854562 -0.6089897 -0.26625907 -0.40224916 -0.10746338 0.12014989 -0.08267448 -0.03683558
-0.0558101 -0.3203513 -0.025731966 -0.12079284 -0.15911898 -0.23556626 -0.12268926 -0.399886
-0.18187661 -0.20711446 0.2962634 -0.44552103 0.034737248 0.16544318 0.11613568 0.3008418
-0.14685775 -0.23432168 0.15525657 -0.36925218 -0.009088518 -0.03519249 0.20875895 -0.280088
-0.19435503 0.05710508 -0.10372263 -0.03956797 0.18778576 0.02927089 -0.1664882 0.025124496
-0.19211057 -0.09946865 0.0727308 -0.16361065 -0.04915581 -0.2581178 -0.26985797 -0.305531
-0.04719144 -0.3181437 -0.3765677 -0.14738984 0.21318741 0.022227634 0.07713767 -0.28831947
-0.0847723 -0.24688044 -0.04466896 0.3714341 -0.26472202 -0.100697726 0.0023876429 -0.08219837
0.14968638 0.3330808 0.20394175 0.12656349 0.34930837 0.36523315 0.17286405 0.39253289
0.15912245 0.34540227 0.22689138 -0.071820244 0.0021499137 0.28610206 0.10941532 0.077269204
0.22135623 0.2696253 -0.041447695 0.33116868 0.19650805 0.22031057 0.024194429 0.30573857
0.43154404 0.15134916 0.13216285 0.1050463 0.3028642 0.1422908 0.2790846 0.42199004
0.23701288 -0.067378424 0.021322235 0.124133326 0.18356119 0.4653076 -0.104015045 0.26051
0.06648226 0.18014887 0.07656965 0.076926075 0.13272366 0.40275657 -0.17673147 0.3918573
0.24606675 0.28167614 0.34055433 0.33590642 0.4591593 0.33608845 0.18698119 -0.012721239
0.3429481 0.221982 0.37123 -0.22086781 0.36559325 0.43053842 0.31452447 0.115254864
-0.0756345 0.06443887 0.022691343 0.17451626 -0.10684377 0.15035065 0.07032227 0.057408433
-0.013015089 -0.098913305 -0.17802423 0.008939981 -0.16885072 0.00390166 0.1109636 -0.0784809
0.0079476945 0.25607893 0.18680851 0.0031384467 -0.004817587 -0.026865631 0.051447965 -0.0046802536
-0.06615489 0.16935366 0.18297419 0.12171435 0.12913157 -0.2602792 -0.09341058 -0.08708553
0.022983111 0.11788328 -0.108936206 -0.048550528 0.023017224 0.14150804 0.033384636 -0.21598096
0.080784105 0.014696314 -0.07993799 0.18305224 -0.07632585 0.029503224 -0.20446377 0.19098337
-0.018102936 0.13072741 -0.051950715 -0.08168729 -0.053663883 0.12549397 -0.04758885 -0.006815966
-0.13063209 0.022070058 0.28305438 -0.13393416 -0.20197846 0.24797793 0.21145912 0.11814234
0.51955616 0.7158476 0.4125591 0.3155267 0.27966508 0.12538607 0.33614922 0.36567718
0.1422815 0.08957159 0.115485005 0.21220778 0.26374683 0.27932647 0.22990364 0.08719106
0.31908518 0.4843875 0.38600552 0.32540342 0.13268417 0.27584377 0.4567521 0.4125968
0.32959738 0.5396687 0.28633 0.38774577 0.50147253 -0.08725516 0.38337746 0.1436945
0.14352256 0.23438747 0.55526847 0.38852477 0.4422881 0.1653622 0.3379608 0.4762583
0.3130785 0.4598434 0.3301693 0.3469284 0.37070826 -0.013183464 0.42881 -0.031215155
0.3362385 0.27274197 0.27641022 0.19596776 0.21655369 0.68407214 0.13675384 -0.09396996
0.4397513 0.25918475 0.404977 0.5337699 0.31194288 0.49200532 0.36121193 0.36851016
